{"format": "layers-model", "generatedBy": "keras v2.8.0", "convertedBy": "TensorFlow.js Converter v3.18.0", "modelTopology": {"keras_version": "2.8.0", "backend": "tensorflow", "model_config": {"class_name": "Functional", "config": {"name": "model_3", "layers": [{"class_name": "InputLayer", "config": {"batch_input_shape": [null, 384, 384, 3], "dtype": "float32", "sparse": false, "ragged": false, "name": "input_9"}, "name": "input_9", "inbound_nodes": []}, {"class_name": "Functional", "config": {"name": "efficientnetv2-s", "layers": [{"class_name": "InputLayer", "config": {"batch_input_shape": [null, 384, 384, 3], "dtype": "float32", "sparse": false, "ragged": false, "name": "input_8"}, "name": "input_8", "inbound_nodes": []}, {"class_name": "Conv2D", "config": {"name": "stem_conv", "trainable": false, "dtype": "float32", "filters": 24, "kernel_size": [3, 3], "strides": [2, 2], "padding": "same", "data_format": "channels_last", "dilation_rate": [1, 1], "groups": 1, "activation": "linear", "use_bias": false, "kernel_initializer": {"class_name": "VarianceScaling", "config": {"scale": 2.0, "mode": "fan_out", "distribution": "truncated_normal", "seed": null}}, "bias_initializer": {"class_name": "Zeros", "config": {}}, "kernel_regularizer": null, "bias_regularizer": null, "activity_regularizer": null, "kernel_constraint": null, "bias_constraint": null}, "name": "stem_conv", "inbound_nodes": [[["input_8", 0, 0, {}]]]}, {"class_name": "BatchNormalization", "config": {"name": "stem_bn", "trainable": false, "dtype": "float32", "axis": [3], "momentum": 0.9, "epsilon": 0.001, "center": true, "scale": true, "beta_initializer": {"class_name": "Zeros", "config": {}}, "gamma_initializer": {"class_name": "Ones", "config": {}}, "moving_mean_initializer": {"class_name": "Zeros", "config": {}}, "moving_variance_initializer": {"class_name": "Ones", "config": {}}, "beta_regularizer": null, "gamma_regularizer": null, "beta_constraint": null, "gamma_constraint": null}, "name": "stem_bn", "inbound_nodes": [[["stem_conv", 0, 0, {}]]]}, {"class_name": "Activation", "config": {"name": "stem_activation", "trainable": false, "dtype": "float32", "activation": "swish"}, "name": "stem_activation", "inbound_nodes": [[["stem_bn", 0, 0, {}]]]}, {"class_name": "Conv2D", "config": {"name": "block1a_project_conv", "trainable": false, "dtype": "float32", "filters": 24, "kernel_size": [3, 3], "strides": [1, 1], "padding": "same", "data_format": "channels_last", "dilation_rate": [1, 1], "groups": 1, "activation": "linear", "use_bias": false, "kernel_initializer": {"class_name": "VarianceScaling", "config": {"scale": 2.0, "mode": "fan_out", "distribution": "truncated_normal", "seed": null}}, "bias_initializer": {"class_name": "Zeros", "config": {}}, "kernel_regularizer": null, "bias_regularizer": null, "activity_regularizer": null, "kernel_constraint": null, "bias_constraint": null}, "name": "block1a_project_conv", "inbound_nodes": [[["stem_activation", 0, 0, {}]]]}, {"class_name": "BatchNormalization", "config": {"name": "block1a_project_bn", "trainable": false, "dtype": "float32", "axis": [3], "momentum": 0.9, "epsilon": 0.001, "center": true, "scale": true, "beta_initializer": {"class_name": "Zeros", "config": {}}, "gamma_initializer": {"class_name": "Ones", "config": {}}, "moving_mean_initializer": {"class_name": "Zeros", "config": {}}, "moving_variance_initializer": {"class_name": "Ones", "config": {}}, "beta_regularizer": null, "gamma_regularizer": null, "beta_constraint": null, "gamma_constraint": null}, "name": "block1a_project_bn", "inbound_nodes": [[["block1a_project_conv", 0, 0, {}]]]}, {"class_name": "Activation", "config": {"name": "block1a_project_activation", "trainable": false, "dtype": "float32", "activation": "swish"}, "name": "block1a_project_activation", "inbound_nodes": [[["block1a_project_bn", 0, 0, {}]]]}, {"class_name": "Add", "config": {"name": "block1a_add", "trainable": false, "dtype": "float32"}, "name": "block1a_add", "inbound_nodes": [[["block1a_project_activation", 0, 0, {}], ["stem_activation", 0, 0, {}]]]}, {"class_name": "Conv2D", "config": {"name": "block1b_project_conv", "trainable": false, "dtype": "float32", "filters": 24, "kernel_size": [3, 3], "strides": [1, 1], "padding": "same", "data_format": "channels_last", "dilation_rate": [1, 1], "groups": 1, "activation": "linear", "use_bias": false, "kernel_initializer": {"class_name": "VarianceScaling", "config": {"scale": 2.0, "mode": "fan_out", "distribution": "truncated_normal", "seed": null}}, "bias_initializer": {"class_name": "Zeros", "config": {}}, "kernel_regularizer": null, "bias_regularizer": null, "activity_regularizer": null, "kernel_constraint": null, "bias_constraint": null}, "name": "block1b_project_conv", "inbound_nodes": [[["block1a_add", 0, 0, {}]]]}, {"class_name": "BatchNormalization", "config": {"name": "block1b_project_bn", "trainable": false, "dtype": "float32", "axis": [3], "momentum": 0.9, "epsilon": 0.001, "center": true, "scale": true, "beta_initializer": {"class_name": "Zeros", "config": {}}, "gamma_initializer": {"class_name": "Ones", "config": {}}, "moving_mean_initializer": {"class_name": "Zeros", "config": {}}, "moving_variance_initializer": {"class_name": "Ones", "config": {}}, "beta_regularizer": null, "gamma_regularizer": null, "beta_constraint": null, "gamma_constraint": null}, "name": "block1b_project_bn", "inbound_nodes": [[["block1b_project_conv", 0, 0, {}]]]}, {"class_name": "Activation", "config": {"name": "block1b_project_activation", "trainable": false, "dtype": "float32", "activation": "swish"}, "name": "block1b_project_activation", "inbound_nodes": [[["block1b_project_bn", 0, 0, {}]]]}, {"class_name": "Add", "config": {"name": "block1b_add", "trainable": false, "dtype": "float32"}, "name": "block1b_add", "inbound_nodes": [[["block1b_project_activation", 0, 0, {}], ["block1a_add", 0, 0, {}]]]}, {"class_name": "Conv2D", "config": {"name": "block2a_expand_conv", "trainable": false, "dtype": "float32", "filters": 96, "kernel_size": [3, 3], "strides": [2, 2], "padding": "same", "data_format": "channels_last", "dilation_rate": [1, 1], "groups": 1, "activation": "linear", "use_bias": false, "kernel_initializer": {"class_name": "VarianceScaling", "config": {"scale": 2.0, "mode": "fan_out", "distribution": "truncated_normal", "seed": null}}, "bias_initializer": {"class_name": "Zeros", "config": {}}, "kernel_regularizer": null, "bias_regularizer": null, "activity_regularizer": null, "kernel_constraint": null, "bias_constraint": null}, "name": "block2a_expand_conv", "inbound_nodes": [[["block1b_add", 0, 0, {}]]]}, {"class_name": "BatchNormalization", "config": {"name": "block2a_expand_bn", "trainable": false, "dtype": "float32", "axis": [3], "momentum": 0.9, "epsilon": 0.001, "center": true, "scale": true, "beta_initializer": {"class_name": "Zeros", "config": {}}, "gamma_initializer": {"class_name": "Ones", "config": {}}, "moving_mean_initializer": {"class_name": "Zeros", "config": {}}, "moving_variance_initializer": {"class_name": "Ones", "config": {}}, "beta_regularizer": null, "gamma_regularizer": null, "beta_constraint": null, "gamma_constraint": null}, "name": "block2a_expand_bn", "inbound_nodes": [[["block2a_expand_conv", 0, 0, {}]]]}, {"class_name": "Activation", "config": {"name": "block2a_expand_activation", "trainable": false, "dtype": "float32", "activation": "swish"}, "name": "block2a_expand_activation", "inbound_nodes": [[["block2a_expand_bn", 0, 0, {}]]]}, {"class_name": "Conv2D", "config": {"name": "block2a_project_conv", "trainable": false, "dtype": "float32", "filters": 48, "kernel_size": [1, 1], "strides": [1, 1], "padding": "same", "data_format": "channels_last", "dilation_rate": [1, 1], "groups": 1, "activation": "linear", "use_bias": false, "kernel_initializer": {"class_name": "VarianceScaling", "config": {"scale": 2.0, "mode": "fan_out", "distribution": "truncated_normal", "seed": null}}, "bias_initializer": {"class_name": "Zeros", "config": {}}, "kernel_regularizer": null, "bias_regularizer": null, "activity_regularizer": null, "kernel_constraint": null, "bias_constraint": null}, "name": "block2a_project_conv", "inbound_nodes": [[["block2a_expand_activation", 0, 0, {}]]]}, {"class_name": "BatchNormalization", "config": {"name": "block2a_project_bn", "trainable": false, "dtype": "float32", "axis": [3], "momentum": 0.9, "epsilon": 0.001, "center": true, "scale": true, "beta_initializer": {"class_name": "Zeros", "config": {}}, "gamma_initializer": {"class_name": "Ones", "config": {}}, "moving_mean_initializer": {"class_name": "Zeros", "config": {}}, "moving_variance_initializer": {"class_name": "Ones", "config": {}}, "beta_regularizer": null, "gamma_regularizer": null, "beta_constraint": null, "gamma_constraint": null}, "name": "block2a_project_bn", "inbound_nodes": [[["block2a_project_conv", 0, 0, {}]]]}, {"class_name": "Conv2D", "config": {"name": "block2b_expand_conv", "trainable": false, "dtype": "float32", "filters": 192, "kernel_size": [3, 3], "strides": [1, 1], "padding": "same", "data_format": "channels_last", "dilation_rate": [1, 1], "groups": 1, "activation": "linear", "use_bias": false, "kernel_initializer": {"class_name": "VarianceScaling", "config": {"scale": 2.0, "mode": "fan_out", "distribution": "truncated_normal", "seed": null}}, "bias_initializer": {"class_name": "Zeros", "config": {}}, "kernel_regularizer": null, "bias_regularizer": null, "activity_regularizer": null, "kernel_constraint": null, "bias_constraint": null}, "name": "block2b_expand_conv", "inbound_nodes": [[["block2a_project_bn", 0, 0, {}]]]}, {"class_name": "BatchNormalization", "config": {"name": "block2b_expand_bn", "trainable": false, "dtype": "float32", "axis": [3], "momentum": 0.9, "epsilon": 0.001, "center": true, "scale": true, "beta_initializer": {"class_name": "Zeros", "config": {}}, "gamma_initializer": {"class_name": "Ones", "config": {}}, "moving_mean_initializer": {"class_name": "Zeros", "config": {}}, "moving_variance_initializer": {"class_name": "Ones", "config": {}}, "beta_regularizer": null, "gamma_regularizer": null, "beta_constraint": null, "gamma_constraint": null}, "name": "block2b_expand_bn", "inbound_nodes": [[["block2b_expand_conv", 0, 0, {}]]]}, {"class_name": "Activation", "config": {"name": "block2b_expand_activation", "trainable": false, "dtype": "float32", "activation": "swish"}, "name": "block2b_expand_activation", "inbound_nodes": [[["block2b_expand_bn", 0, 0, {}]]]}, {"class_name": "Conv2D", "config": {"name": "block2b_project_conv", "trainable": false, "dtype": "float32", "filters": 48, "kernel_size": [1, 1], "strides": [1, 1], "padding": "same", "data_format": "channels_last", "dilation_rate": [1, 1], "groups": 1, "activation": "linear", "use_bias": false, "kernel_initializer": {"class_name": "VarianceScaling", "config": {"scale": 2.0, "mode": "fan_out", "distribution": "truncated_normal", "seed": null}}, "bias_initializer": {"class_name": "Zeros", "config": {}}, "kernel_regularizer": null, "bias_regularizer": null, "activity_regularizer": null, "kernel_constraint": null, "bias_constraint": null}, "name": "block2b_project_conv", "inbound_nodes": [[["block2b_expand_activation", 0, 0, {}]]]}, {"class_name": "BatchNormalization", "config": {"name": "block2b_project_bn", "trainable": false, "dtype": "float32", "axis": [3], "momentum": 0.9, "epsilon": 0.001, "center": true, "scale": true, "beta_initializer": {"class_name": "Zeros", "config": {}}, "gamma_initializer": {"class_name": "Ones", "config": {}}, "moving_mean_initializer": {"class_name": "Zeros", "config": {}}, "moving_variance_initializer": {"class_name": "Ones", "config": {}}, "beta_regularizer": null, "gamma_regularizer": null, "beta_constraint": null, "gamma_constraint": null}, "name": "block2b_project_bn", "inbound_nodes": [[["block2b_project_conv", 0, 0, {}]]]}, {"class_name": "Add", "config": {"name": "block2b_add", "trainable": false, "dtype": "float32"}, "name": "block2b_add", "inbound_nodes": [[["block2b_project_bn", 0, 0, {}], ["block2a_project_bn", 0, 0, {}]]]}, {"class_name": "Conv2D", "config": {"name": "block2c_expand_conv", "trainable": false, "dtype": "float32", "filters": 192, "kernel_size": [3, 3], "strides": [1, 1], "padding": "same", "data_format": "channels_last", "dilation_rate": [1, 1], "groups": 1, "activation": "linear", "use_bias": false, "kernel_initializer": {"class_name": "VarianceScaling", "config": {"scale": 2.0, "mode": "fan_out", "distribution": "truncated_normal", "seed": null}}, "bias_initializer": {"class_name": "Zeros", "config": {}}, "kernel_regularizer": null, "bias_regularizer": null, "activity_regularizer": null, "kernel_constraint": null, "bias_constraint": null}, "name": "block2c_expand_conv", "inbound_nodes": [[["block2b_add", 0, 0, {}]]]}, {"class_name": "BatchNormalization", "config": {"name": "block2c_expand_bn", "trainable": false, "dtype": "float32", "axis": [3], "momentum": 0.9, "epsilon": 0.001, "center": true, "scale": true, "beta_initializer": {"class_name": "Zeros", "config": {}}, "gamma_initializer": {"class_name": "Ones", "config": {}}, "moving_mean_initializer": {"class_name": "Zeros", "config": {}}, "moving_variance_initializer": {"class_name": "Ones", "config": {}}, "beta_regularizer": null, "gamma_regularizer": null, "beta_constraint": null, "gamma_constraint": null}, "name": "block2c_expand_bn", "inbound_nodes": [[["block2c_expand_conv", 0, 0, {}]]]}, {"class_name": "Activation", "config": {"name": "block2c_expand_activation", "trainable": false, "dtype": "float32", "activation": "swish"}, "name": "block2c_expand_activation", "inbound_nodes": [[["block2c_expand_bn", 0, 0, {}]]]}, {"class_name": "Conv2D", "config": {"name": "block2c_project_conv", "trainable": false, "dtype": "float32", "filters": 48, "kernel_size": [1, 1], "strides": [1, 1], "padding": "same", "data_format": "channels_last", "dilation_rate": [1, 1], "groups": 1, "activation": "linear", "use_bias": false, "kernel_initializer": {"class_name": "VarianceScaling", "config": {"scale": 2.0, "mode": "fan_out", "distribution": "truncated_normal", "seed": null}}, "bias_initializer": {"class_name": "Zeros", "config": {}}, "kernel_regularizer": null, "bias_regularizer": null, "activity_regularizer": null, "kernel_constraint": null, "bias_constraint": null}, "name": "block2c_project_conv", "inbound_nodes": [[["block2c_expand_activation", 0, 0, {}]]]}, {"class_name": "BatchNormalization", "config": {"name": "block2c_project_bn", "trainable": false, "dtype": "float32", "axis": [3], "momentum": 0.9, "epsilon": 0.001, "center": true, "scale": true, "beta_initializer": {"class_name": "Zeros", "config": {}}, "gamma_initializer": {"class_name": "Ones", "config": {}}, "moving_mean_initializer": {"class_name": "Zeros", "config": {}}, "moving_variance_initializer": {"class_name": "Ones", "config": {}}, "beta_regularizer": null, "gamma_regularizer": null, "beta_constraint": null, "gamma_constraint": null}, "name": "block2c_project_bn", "inbound_nodes": [[["block2c_project_conv", 0, 0, {}]]]}, {"class_name": "Add", "config": {"name": "block2c_add", "trainable": false, "dtype": "float32"}, "name": "block2c_add", "inbound_nodes": [[["block2c_project_bn", 0, 0, {}], ["block2b_add", 0, 0, {}]]]}, {"class_name": "Conv2D", "config": {"name": "block2d_expand_conv", "trainable": false, "dtype": "float32", "filters": 192, "kernel_size": [3, 3], "strides": [1, 1], "padding": "same", "data_format": "channels_last", "dilation_rate": [1, 1], "groups": 1, "activation": "linear", "use_bias": false, "kernel_initializer": {"class_name": "VarianceScaling", "config": {"scale": 2.0, "mode": "fan_out", "distribution": "truncated_normal", "seed": null}}, "bias_initializer": {"class_name": "Zeros", "config": {}}, "kernel_regularizer": null, "bias_regularizer": null, "activity_regularizer": null, "kernel_constraint": null, "bias_constraint": null}, "name": "block2d_expand_conv", "inbound_nodes": [[["block2c_add", 0, 0, {}]]]}, {"class_name": "BatchNormalization", "config": {"name": "block2d_expand_bn", "trainable": false, "dtype": "float32", "axis": [3], "momentum": 0.9, "epsilon": 0.001, "center": true, "scale": true, "beta_initializer": {"class_name": "Zeros", "config": {}}, "gamma_initializer": {"class_name": "Ones", "config": {}}, "moving_mean_initializer": {"class_name": "Zeros", "config": {}}, "moving_variance_initializer": {"class_name": "Ones", "config": {}}, "beta_regularizer": null, "gamma_regularizer": null, "beta_constraint": null, "gamma_constraint": null}, "name": "block2d_expand_bn", "inbound_nodes": [[["block2d_expand_conv", 0, 0, {}]]]}, {"class_name": "Activation", "config": {"name": "block2d_expand_activation", "trainable": false, "dtype": "float32", "activation": "swish"}, "name": "block2d_expand_activation", "inbound_nodes": [[["block2d_expand_bn", 0, 0, {}]]]}, {"class_name": "Conv2D", "config": {"name": "block2d_project_conv", "trainable": false, "dtype": "float32", "filters": 48, "kernel_size": [1, 1], "strides": [1, 1], "padding": "same", "data_format": "channels_last", "dilation_rate": [1, 1], "groups": 1, "activation": "linear", "use_bias": false, "kernel_initializer": {"class_name": "VarianceScaling", "config": {"scale": 2.0, "mode": "fan_out", "distribution": "truncated_normal", "seed": null}}, "bias_initializer": {"class_name": "Zeros", "config": {}}, "kernel_regularizer": null, "bias_regularizer": null, "activity_regularizer": null, "kernel_constraint": null, "bias_constraint": null}, "name": "block2d_project_conv", "inbound_nodes": [[["block2d_expand_activation", 0, 0, {}]]]}, {"class_name": "BatchNormalization", "config": {"name": "block2d_project_bn", "trainable": false, "dtype": "float32", "axis": [3], "momentum": 0.9, "epsilon": 0.001, "center": true, "scale": true, "beta_initializer": {"class_name": "Zeros", "config": {}}, "gamma_initializer": {"class_name": "Ones", "config": {}}, "moving_mean_initializer": {"class_name": "Zeros", "config": {}}, "moving_variance_initializer": {"class_name": "Ones", "config": {}}, "beta_regularizer": null, "gamma_regularizer": null, "beta_constraint": null, "gamma_constraint": null}, "name": "block2d_project_bn", "inbound_nodes": [[["block2d_project_conv", 0, 0, {}]]]}, {"class_name": "Add", "config": {"name": "block2d_add", "trainable": false, "dtype": "float32"}, "name": "block2d_add", "inbound_nodes": [[["block2d_project_bn", 0, 0, {}], ["block2c_add", 0, 0, {}]]]}, {"class_name": "Conv2D", "config": {"name": "block3a_expand_conv", "trainable": false, "dtype": "float32", "filters": 192, "kernel_size": [3, 3], "strides": [2, 2], "padding": "same", "data_format": "channels_last", "dilation_rate": [1, 1], "groups": 1, "activation": "linear", "use_bias": false, "kernel_initializer": {"class_name": "VarianceScaling", "config": {"scale": 2.0, "mode": "fan_out", "distribution": "truncated_normal", "seed": null}}, "bias_initializer": {"class_name": "Zeros", "config": {}}, "kernel_regularizer": null, "bias_regularizer": null, "activity_regularizer": null, "kernel_constraint": null, "bias_constraint": null}, "name": "block3a_expand_conv", "inbound_nodes": [[["block2d_add", 0, 0, {}]]]}, {"class_name": "BatchNormalization", "config": {"name": "block3a_expand_bn", "trainable": false, "dtype": "float32", "axis": [3], "momentum": 0.9, "epsilon": 0.001, "center": true, "scale": true, "beta_initializer": {"class_name": "Zeros", "config": {}}, "gamma_initializer": {"class_name": "Ones", "config": {}}, "moving_mean_initializer": {"class_name": "Zeros", "config": {}}, "moving_variance_initializer": {"class_name": "Ones", "config": {}}, "beta_regularizer": null, "gamma_regularizer": null, "beta_constraint": null, "gamma_constraint": null}, "name": "block3a_expand_bn", "inbound_nodes": [[["block3a_expand_conv", 0, 0, {}]]]}, {"class_name": "Activation", "config": {"name": "block3a_expand_activation", "trainable": false, "dtype": "float32", "activation": "swish"}, "name": "block3a_expand_activation", "inbound_nodes": [[["block3a_expand_bn", 0, 0, {}]]]}, {"class_name": "Conv2D", "config": {"name": "block3a_project_conv", "trainable": false, "dtype": "float32", "filters": 64, "kernel_size": [1, 1], "strides": [1, 1], "padding": "same", "data_format": "channels_last", "dilation_rate": [1, 1], "groups": 1, "activation": "linear", "use_bias": false, "kernel_initializer": {"class_name": "VarianceScaling", "config": {"scale": 2.0, "mode": "fan_out", "distribution": "truncated_normal", "seed": null}}, "bias_initializer": {"class_name": "Zeros", "config": {}}, "kernel_regularizer": null, "bias_regularizer": null, "activity_regularizer": null, "kernel_constraint": null, "bias_constraint": null}, "name": "block3a_project_conv", "inbound_nodes": [[["block3a_expand_activation", 0, 0, {}]]]}, {"class_name": "BatchNormalization", "config": {"name": "block3a_project_bn", "trainable": false, "dtype": "float32", "axis": [3], "momentum": 0.9, "epsilon": 0.001, "center": true, "scale": true, "beta_initializer": {"class_name": "Zeros", "config": {}}, "gamma_initializer": {"class_name": "Ones", "config": {}}, "moving_mean_initializer": {"class_name": "Zeros", "config": {}}, "moving_variance_initializer": {"class_name": "Ones", "config": {}}, "beta_regularizer": null, "gamma_regularizer": null, "beta_constraint": null, "gamma_constraint": null}, "name": "block3a_project_bn", "inbound_nodes": [[["block3a_project_conv", 0, 0, {}]]]}, {"class_name": "Conv2D", "config": {"name": "block3b_expand_conv", "trainable": false, "dtype": "float32", "filters": 256, "kernel_size": [3, 3], "strides": [1, 1], "padding": "same", "data_format": "channels_last", "dilation_rate": [1, 1], "groups": 1, "activation": "linear", "use_bias": false, "kernel_initializer": {"class_name": "VarianceScaling", "config": {"scale": 2.0, "mode": "fan_out", "distribution": "truncated_normal", "seed": null}}, "bias_initializer": {"class_name": "Zeros", "config": {}}, "kernel_regularizer": null, "bias_regularizer": null, "activity_regularizer": null, "kernel_constraint": null, "bias_constraint": null}, "name": "block3b_expand_conv", "inbound_nodes": [[["block3a_project_bn", 0, 0, {}]]]}, {"class_name": "BatchNormalization", "config": {"name": "block3b_expand_bn", "trainable": false, "dtype": "float32", "axis": [3], "momentum": 0.9, "epsilon": 0.001, "center": true, "scale": true, "beta_initializer": {"class_name": "Zeros", "config": {}}, "gamma_initializer": {"class_name": "Ones", "config": {}}, "moving_mean_initializer": {"class_name": "Zeros", "config": {}}, "moving_variance_initializer": {"class_name": "Ones", "config": {}}, "beta_regularizer": null, "gamma_regularizer": null, "beta_constraint": null, "gamma_constraint": null}, "name": "block3b_expand_bn", "inbound_nodes": [[["block3b_expand_conv", 0, 0, {}]]]}, {"class_name": "Activation", "config": {"name": "block3b_expand_activation", "trainable": false, "dtype": "float32", "activation": "swish"}, "name": "block3b_expand_activation", "inbound_nodes": [[["block3b_expand_bn", 0, 0, {}]]]}, {"class_name": "Conv2D", "config": {"name": "block3b_project_conv", "trainable": false, "dtype": "float32", "filters": 64, "kernel_size": [1, 1], "strides": [1, 1], "padding": "same", "data_format": "channels_last", "dilation_rate": [1, 1], "groups": 1, "activation": "linear", "use_bias": false, "kernel_initializer": {"class_name": "VarianceScaling", "config": {"scale": 2.0, "mode": "fan_out", "distribution": "truncated_normal", "seed": null}}, "bias_initializer": {"class_name": "Zeros", "config": {}}, "kernel_regularizer": null, "bias_regularizer": null, "activity_regularizer": null, "kernel_constraint": null, "bias_constraint": null}, "name": "block3b_project_conv", "inbound_nodes": [[["block3b_expand_activation", 0, 0, {}]]]}, {"class_name": "BatchNormalization", "config": {"name": "block3b_project_bn", "trainable": false, "dtype": "float32", "axis": [3], "momentum": 0.9, "epsilon": 0.001, "center": true, "scale": true, "beta_initializer": {"class_name": "Zeros", "config": {}}, "gamma_initializer": {"class_name": "Ones", "config": {}}, "moving_mean_initializer": {"class_name": "Zeros", "config": {}}, "moving_variance_initializer": {"class_name": "Ones", "config": {}}, "beta_regularizer": null, "gamma_regularizer": null, "beta_constraint": null, "gamma_constraint": null}, "name": "block3b_project_bn", "inbound_nodes": [[["block3b_project_conv", 0, 0, {}]]]}, {"class_name": "Add", "config": {"name": "block3b_add", "trainable": false, "dtype": "float32"}, "name": "block3b_add", "inbound_nodes": [[["block3b_project_bn", 0, 0, {}], ["block3a_project_bn", 0, 0, {}]]]}, {"class_name": "Conv2D", "config": {"name": "block3c_expand_conv", "trainable": false, "dtype": "float32", "filters": 256, "kernel_size": [3, 3], "strides": [1, 1], "padding": "same", "data_format": "channels_last", "dilation_rate": [1, 1], "groups": 1, "activation": "linear", "use_bias": false, "kernel_initializer": {"class_name": "VarianceScaling", "config": {"scale": 2.0, "mode": "fan_out", "distribution": "truncated_normal", "seed": null}}, "bias_initializer": {"class_name": "Zeros", "config": {}}, "kernel_regularizer": null, "bias_regularizer": null, "activity_regularizer": null, "kernel_constraint": null, "bias_constraint": null}, "name": "block3c_expand_conv", "inbound_nodes": [[["block3b_add", 0, 0, {}]]]}, {"class_name": "BatchNormalization", "config": {"name": "block3c_expand_bn", "trainable": false, "dtype": "float32", "axis": [3], "momentum": 0.9, "epsilon": 0.001, "center": true, "scale": true, "beta_initializer": {"class_name": "Zeros", "config": {}}, "gamma_initializer": {"class_name": "Ones", "config": {}}, "moving_mean_initializer": {"class_name": "Zeros", "config": {}}, "moving_variance_initializer": {"class_name": "Ones", "config": {}}, "beta_regularizer": null, "gamma_regularizer": null, "beta_constraint": null, "gamma_constraint": null}, "name": "block3c_expand_bn", "inbound_nodes": [[["block3c_expand_conv", 0, 0, {}]]]}, {"class_name": "Activation", "config": {"name": "block3c_expand_activation", "trainable": false, "dtype": "float32", "activation": "swish"}, "name": "block3c_expand_activation", "inbound_nodes": [[["block3c_expand_bn", 0, 0, {}]]]}, {"class_name": "Conv2D", "config": {"name": "block3c_project_conv", "trainable": false, "dtype": "float32", "filters": 64, "kernel_size": [1, 1], "strides": [1, 1], "padding": "same", "data_format": "channels_last", "dilation_rate": [1, 1], "groups": 1, "activation": "linear", "use_bias": false, "kernel_initializer": {"class_name": "VarianceScaling", "config": {"scale": 2.0, "mode": "fan_out", "distribution": "truncated_normal", "seed": null}}, "bias_initializer": {"class_name": "Zeros", "config": {}}, "kernel_regularizer": null, "bias_regularizer": null, "activity_regularizer": null, "kernel_constraint": null, "bias_constraint": null}, "name": "block3c_project_conv", "inbound_nodes": [[["block3c_expand_activation", 0, 0, {}]]]}, {"class_name": "BatchNormalization", "config": {"name": "block3c_project_bn", "trainable": false, "dtype": "float32", "axis": [3], "momentum": 0.9, "epsilon": 0.001, "center": true, "scale": true, "beta_initializer": {"class_name": "Zeros", "config": {}}, "gamma_initializer": {"class_name": "Ones", "config": {}}, "moving_mean_initializer": {"class_name": "Zeros", "config": {}}, "moving_variance_initializer": {"class_name": "Ones", "config": {}}, "beta_regularizer": null, "gamma_regularizer": null, "beta_constraint": null, "gamma_constraint": null}, "name": "block3c_project_bn", "inbound_nodes": [[["block3c_project_conv", 0, 0, {}]]]}, {"class_name": "Add", "config": {"name": "block3c_add", "trainable": false, "dtype": "float32"}, "name": "block3c_add", "inbound_nodes": [[["block3c_project_bn", 0, 0, {}], ["block3b_add", 0, 0, {}]]]}, {"class_name": "Conv2D", "config": {"name": "block3d_expand_conv", "trainable": false, "dtype": "float32", "filters": 256, "kernel_size": [3, 3], "strides": [1, 1], "padding": "same", "data_format": "channels_last", "dilation_rate": [1, 1], "groups": 1, "activation": "linear", "use_bias": false, "kernel_initializer": {"class_name": "VarianceScaling", "config": {"scale": 2.0, "mode": "fan_out", "distribution": "truncated_normal", "seed": null}}, "bias_initializer": {"class_name": "Zeros", "config": {}}, "kernel_regularizer": null, "bias_regularizer": null, "activity_regularizer": null, "kernel_constraint": null, "bias_constraint": null}, "name": "block3d_expand_conv", "inbound_nodes": [[["block3c_add", 0, 0, {}]]]}, {"class_name": "BatchNormalization", "config": {"name": "block3d_expand_bn", "trainable": false, "dtype": "float32", "axis": [3], "momentum": 0.9, "epsilon": 0.001, "center": true, "scale": true, "beta_initializer": {"class_name": "Zeros", "config": {}}, "gamma_initializer": {"class_name": "Ones", "config": {}}, "moving_mean_initializer": {"class_name": "Zeros", "config": {}}, "moving_variance_initializer": {"class_name": "Ones", "config": {}}, "beta_regularizer": null, "gamma_regularizer": null, "beta_constraint": null, "gamma_constraint": null}, "name": "block3d_expand_bn", "inbound_nodes": [[["block3d_expand_conv", 0, 0, {}]]]}, {"class_name": "Activation", "config": {"name": "block3d_expand_activation", "trainable": false, "dtype": "float32", "activation": "swish"}, "name": "block3d_expand_activation", "inbound_nodes": [[["block3d_expand_bn", 0, 0, {}]]]}, {"class_name": "Conv2D", "config": {"name": "block3d_project_conv", "trainable": false, "dtype": "float32", "filters": 64, "kernel_size": [1, 1], "strides": [1, 1], "padding": "same", "data_format": "channels_last", "dilation_rate": [1, 1], "groups": 1, "activation": "linear", "use_bias": false, "kernel_initializer": {"class_name": "VarianceScaling", "config": {"scale": 2.0, "mode": "fan_out", "distribution": "truncated_normal", "seed": null}}, "bias_initializer": {"class_name": "Zeros", "config": {}}, "kernel_regularizer": null, "bias_regularizer": null, "activity_regularizer": null, "kernel_constraint": null, "bias_constraint": null}, "name": "block3d_project_conv", "inbound_nodes": [[["block3d_expand_activation", 0, 0, {}]]]}, {"class_name": "BatchNormalization", "config": {"name": "block3d_project_bn", "trainable": false, "dtype": "float32", "axis": [3], "momentum": 0.9, "epsilon": 0.001, "center": true, "scale": true, "beta_initializer": {"class_name": "Zeros", "config": {}}, "gamma_initializer": {"class_name": "Ones", "config": {}}, "moving_mean_initializer": {"class_name": "Zeros", "config": {}}, "moving_variance_initializer": {"class_name": "Ones", "config": {}}, "beta_regularizer": null, "gamma_regularizer": null, "beta_constraint": null, "gamma_constraint": null}, "name": "block3d_project_bn", "inbound_nodes": [[["block3d_project_conv", 0, 0, {}]]]}, {"class_name": "Add", "config": {"name": "block3d_add", "trainable": false, "dtype": "float32"}, "name": "block3d_add", "inbound_nodes": [[["block3d_project_bn", 0, 0, {}], ["block3c_add", 0, 0, {}]]]}, {"class_name": "Conv2D", "config": {"name": "block4a_expand_conv", "trainable": false, "dtype": "float32", "filters": 256, "kernel_size": [1, 1], "strides": [1, 1], "padding": "same", "data_format": "channels_last", "dilation_rate": [1, 1], "groups": 1, "activation": "linear", "use_bias": false, "kernel_initializer": {"class_name": "VarianceScaling", "config": {"scale": 2.0, "mode": "fan_out", "distribution": "truncated_normal", "seed": null}}, "bias_initializer": {"class_name": "Zeros", "config": {}}, "kernel_regularizer": null, "bias_regularizer": null, "activity_regularizer": null, "kernel_constraint": null, "bias_constraint": null}, "name": "block4a_expand_conv", "inbound_nodes": [[["block3d_add", 0, 0, {}]]]}, {"class_name": "BatchNormalization", "config": {"name": "block4a_expand_bn", "trainable": false, "dtype": "float32", "axis": [3], "momentum": 0.9, "epsilon": 0.001, "center": true, "scale": true, "beta_initializer": {"class_name": "Zeros", "config": {}}, "gamma_initializer": {"class_name": "Ones", "config": {}}, "moving_mean_initializer": {"class_name": "Zeros", "config": {}}, "moving_variance_initializer": {"class_name": "Ones", "config": {}}, "beta_regularizer": null, "gamma_regularizer": null, "beta_constraint": null, "gamma_constraint": null}, "name": "block4a_expand_bn", "inbound_nodes": [[["block4a_expand_conv", 0, 0, {}]]]}, {"class_name": "Activation", "config": {"name": "block4a_expand_activation", "trainable": false, "dtype": "float32", "activation": "swish"}, "name": "block4a_expand_activation", "inbound_nodes": [[["block4a_expand_bn", 0, 0, {}]]]}, {"class_name": "DepthwiseConv2D", "config": {"name": "block4a_dwconv2", "trainable": false, "dtype": "float32", "kernel_size": [3, 3], "strides": [2, 2], "padding": "same", "data_format": "channels_last", "dilation_rate": [1, 1], "groups": 1, "activation": "linear", "use_bias": false, "bias_initializer": {"class_name": "Zeros", "config": {}}, "bias_regularizer": null, "activity_regularizer": null, "bias_constraint": null, "depth_multiplier": 1, "depthwise_initializer": {"class_name": "VarianceScaling", "config": {"scale": 2.0, "mode": "fan_out", "distribution": "truncated_normal", "seed": null}}, "depthwise_regularizer": null, "depthwise_constraint": null}, "name": "block4a_dwconv2", "inbound_nodes": [[["block4a_expand_activation", 0, 0, {}]]]}, {"class_name": "BatchNormalization", "config": {"name": "block4a_bn", "trainable": false, "dtype": "float32", "axis": [3], "momentum": 0.9, "epsilon": 0.001, "center": true, "scale": true, "beta_initializer": {"class_name": "Zeros", "config": {}}, "gamma_initializer": {"class_name": "Ones", "config": {}}, "moving_mean_initializer": {"class_name": "Zeros", "config": {}}, "moving_variance_initializer": {"class_name": "Ones", "config": {}}, "beta_regularizer": null, "gamma_regularizer": null, "beta_constraint": null, "gamma_constraint": null}, "name": "block4a_bn", "inbound_nodes": [[["block4a_dwconv2", 0, 0, {}]]]}, {"class_name": "Activation", "config": {"name": "block4a_activation", "trainable": false, "dtype": "float32", "activation": "swish"}, "name": "block4a_activation", "inbound_nodes": [[["block4a_bn", 0, 0, {}]]]}, {"class_name": "GlobalAveragePooling2D", "config": {"name": "block4a_se_squeeze", "trainable": false, "dtype": "float32", "data_format": "channels_last", "keepdims": false}, "name": "block4a_se_squeeze", "inbound_nodes": [[["block4a_activation", 0, 0, {}]]]}, {"class_name": "Reshape", "config": {"name": "block4a_se_reshape", "trainable": false, "dtype": "float32", "target_shape": [1, 1, 256]}, "name": "block4a_se_reshape", "inbound_nodes": [[["block4a_se_squeeze", 0, 0, {}]]]}, {"class_name": "Conv2D", "config": {"name": "block4a_se_reduce", "trainable": false, "dtype": "float32", "filters": 16, "kernel_size": [1, 1], "strides": [1, 1], "padding": "same", "data_format": "channels_last", "dilation_rate": [1, 1], "groups": 1, "activation": "swish", "use_bias": true, "kernel_initializer": {"class_name": "VarianceScaling", "config": {"scale": 2.0, "mode": "fan_out", "distribution": "truncated_normal", "seed": null}}, "bias_initializer": {"class_name": "Zeros", "config": {}}, "kernel_regularizer": null, "bias_regularizer": null, "activity_regularizer": null, "kernel_constraint": null, "bias_constraint": null}, "name": "block4a_se_reduce", "inbound_nodes": [[["block4a_se_reshape", 0, 0, {}]]]}, {"class_name": "Conv2D", "config": {"name": "block4a_se_expand", "trainable": false, "dtype": "float32", "filters": 256, "kernel_size": [1, 1], "strides": [1, 1], "padding": "same", "data_format": "channels_last", "dilation_rate": [1, 1], "groups": 1, "activation": "sigmoid", "use_bias": true, "kernel_initializer": {"class_name": "VarianceScaling", "config": {"scale": 2.0, "mode": "fan_out", "distribution": "truncated_normal", "seed": null}}, "bias_initializer": {"class_name": "Zeros", "config": {}}, "kernel_regularizer": null, "bias_regularizer": null, "activity_regularizer": null, "kernel_constraint": null, "bias_constraint": null}, "name": "block4a_se_expand", "inbound_nodes": [[["block4a_se_reduce", 0, 0, {}]]]}, {"class_name": "Multiply", "config": {"name": "block4a_se_excite", "trainable": false, "dtype": "float32"}, "name": "block4a_se_excite", "inbound_nodes": [[["block4a_activation", 0, 0, {}], ["block4a_se_expand", 0, 0, {}]]]}, {"class_name": "Conv2D", "config": {"name": "block4a_project_conv", "trainable": false, "dtype": "float32", "filters": 128, "kernel_size": [1, 1], "strides": [1, 1], "padding": "same", "data_format": "channels_last", "dilation_rate": [1, 1], "groups": 1, "activation": "linear", "use_bias": false, "kernel_initializer": {"class_name": "VarianceScaling", "config": {"scale": 2.0, "mode": "fan_out", "distribution": "truncated_normal", "seed": null}}, "bias_initializer": {"class_name": "Zeros", "config": {}}, "kernel_regularizer": null, "bias_regularizer": null, "activity_regularizer": null, "kernel_constraint": null, "bias_constraint": null}, "name": "block4a_project_conv", "inbound_nodes": [[["block4a_se_excite", 0, 0, {}]]]}, {"class_name": "BatchNormalization", "config": {"name": "block4a_project_bn", "trainable": false, "dtype": "float32", "axis": [3], "momentum": 0.9, "epsilon": 0.001, "center": true, "scale": true, "beta_initializer": {"class_name": "Zeros", "config": {}}, "gamma_initializer": {"class_name": "Ones", "config": {}}, "moving_mean_initializer": {"class_name": "Zeros", "config": {}}, "moving_variance_initializer": {"class_name": "Ones", "config": {}}, "beta_regularizer": null, "gamma_regularizer": null, "beta_constraint": null, "gamma_constraint": null}, "name": "block4a_project_bn", "inbound_nodes": [[["block4a_project_conv", 0, 0, {}]]]}, {"class_name": "Conv2D", "config": {"name": "block4b_expand_conv", "trainable": false, "dtype": "float32", "filters": 512, "kernel_size": [1, 1], "strides": [1, 1], "padding": "same", "data_format": "channels_last", "dilation_rate": [1, 1], "groups": 1, "activation": "linear", "use_bias": false, "kernel_initializer": {"class_name": "VarianceScaling", "config": {"scale": 2.0, "mode": "fan_out", "distribution": "truncated_normal", "seed": null}}, "bias_initializer": {"class_name": "Zeros", "config": {}}, "kernel_regularizer": null, "bias_regularizer": null, "activity_regularizer": null, "kernel_constraint": null, "bias_constraint": null}, "name": "block4b_expand_conv", "inbound_nodes": [[["block4a_project_bn", 0, 0, {}]]]}, {"class_name": "BatchNormalization", "config": {"name": "block4b_expand_bn", "trainable": false, "dtype": "float32", "axis": [3], "momentum": 0.9, "epsilon": 0.001, "center": true, "scale": true, "beta_initializer": {"class_name": "Zeros", "config": {}}, "gamma_initializer": {"class_name": "Ones", "config": {}}, "moving_mean_initializer": {"class_name": "Zeros", "config": {}}, "moving_variance_initializer": {"class_name": "Ones", "config": {}}, "beta_regularizer": null, "gamma_regularizer": null, "beta_constraint": null, "gamma_constraint": null}, "name": "block4b_expand_bn", "inbound_nodes": [[["block4b_expand_conv", 0, 0, {}]]]}, {"class_name": "Activation", "config": {"name": "block4b_expand_activation", "trainable": false, "dtype": "float32", "activation": "swish"}, "name": "block4b_expand_activation", "inbound_nodes": [[["block4b_expand_bn", 0, 0, {}]]]}, {"class_name": "DepthwiseConv2D", "config": {"name": "block4b_dwconv2", "trainable": false, "dtype": "float32", "kernel_size": [3, 3], "strides": [1, 1], "padding": "same", "data_format": "channels_last", "dilation_rate": [1, 1], "groups": 1, "activation": "linear", "use_bias": false, "bias_initializer": {"class_name": "Zeros", "config": {}}, "bias_regularizer": null, "activity_regularizer": null, "bias_constraint": null, "depth_multiplier": 1, "depthwise_initializer": {"class_name": "VarianceScaling", "config": {"scale": 2.0, "mode": "fan_out", "distribution": "truncated_normal", "seed": null}}, "depthwise_regularizer": null, "depthwise_constraint": null}, "name": "block4b_dwconv2", "inbound_nodes": [[["block4b_expand_activation", 0, 0, {}]]]}, {"class_name": "BatchNormalization", "config": {"name": "block4b_bn", "trainable": false, "dtype": "float32", "axis": [3], "momentum": 0.9, "epsilon": 0.001, "center": true, "scale": true, "beta_initializer": {"class_name": "Zeros", "config": {}}, "gamma_initializer": {"class_name": "Ones", "config": {}}, "moving_mean_initializer": {"class_name": "Zeros", "config": {}}, "moving_variance_initializer": {"class_name": "Ones", "config": {}}, "beta_regularizer": null, "gamma_regularizer": null, "beta_constraint": null, "gamma_constraint": null}, "name": "block4b_bn", "inbound_nodes": [[["block4b_dwconv2", 0, 0, {}]]]}, {"class_name": "Activation", "config": {"name": "block4b_activation", "trainable": false, "dtype": "float32", "activation": "swish"}, "name": "block4b_activation", "inbound_nodes": [[["block4b_bn", 0, 0, {}]]]}, {"class_name": "GlobalAveragePooling2D", "config": {"name": "block4b_se_squeeze", "trainable": false, "dtype": "float32", "data_format": "channels_last", "keepdims": false}, "name": "block4b_se_squeeze", "inbound_nodes": [[["block4b_activation", 0, 0, {}]]]}, {"class_name": "Reshape", "config": {"name": "block4b_se_reshape", "trainable": false, "dtype": "float32", "target_shape": [1, 1, 512]}, "name": "block4b_se_reshape", "inbound_nodes": [[["block4b_se_squeeze", 0, 0, {}]]]}, {"class_name": "Conv2D", "config": {"name": "block4b_se_reduce", "trainable": false, "dtype": "float32", "filters": 32, "kernel_size": [1, 1], "strides": [1, 1], "padding": "same", "data_format": "channels_last", "dilation_rate": [1, 1], "groups": 1, "activation": "swish", "use_bias": true, "kernel_initializer": {"class_name": "VarianceScaling", "config": {"scale": 2.0, "mode": "fan_out", "distribution": "truncated_normal", "seed": null}}, "bias_initializer": {"class_name": "Zeros", "config": {}}, "kernel_regularizer": null, "bias_regularizer": null, "activity_regularizer": null, "kernel_constraint": null, "bias_constraint": null}, "name": "block4b_se_reduce", "inbound_nodes": [[["block4b_se_reshape", 0, 0, {}]]]}, {"class_name": "Conv2D", "config": {"name": "block4b_se_expand", "trainable": false, "dtype": "float32", "filters": 512, "kernel_size": [1, 1], "strides": [1, 1], "padding": "same", "data_format": "channels_last", "dilation_rate": [1, 1], "groups": 1, "activation": "sigmoid", "use_bias": true, "kernel_initializer": {"class_name": "VarianceScaling", "config": {"scale": 2.0, "mode": "fan_out", "distribution": "truncated_normal", "seed": null}}, "bias_initializer": {"class_name": "Zeros", "config": {}}, "kernel_regularizer": null, "bias_regularizer": null, "activity_regularizer": null, "kernel_constraint": null, "bias_constraint": null}, "name": "block4b_se_expand", "inbound_nodes": [[["block4b_se_reduce", 0, 0, {}]]]}, {"class_name": "Multiply", "config": {"name": "block4b_se_excite", "trainable": false, "dtype": "float32"}, "name": "block4b_se_excite", "inbound_nodes": [[["block4b_activation", 0, 0, {}], ["block4b_se_expand", 0, 0, {}]]]}, {"class_name": "Conv2D", "config": {"name": "block4b_project_conv", "trainable": false, "dtype": "float32", "filters": 128, "kernel_size": [1, 1], "strides": [1, 1], "padding": "same", "data_format": "channels_last", "dilation_rate": [1, 1], "groups": 1, "activation": "linear", "use_bias": false, "kernel_initializer": {"class_name": "VarianceScaling", "config": {"scale": 2.0, "mode": "fan_out", "distribution": "truncated_normal", "seed": null}}, "bias_initializer": {"class_name": "Zeros", "config": {}}, "kernel_regularizer": null, "bias_regularizer": null, "activity_regularizer": null, "kernel_constraint": null, "bias_constraint": null}, "name": "block4b_project_conv", "inbound_nodes": [[["block4b_se_excite", 0, 0, {}]]]}, {"class_name": "BatchNormalization", "config": {"name": "block4b_project_bn", "trainable": false, "dtype": "float32", "axis": [3], "momentum": 0.9, "epsilon": 0.001, "center": true, "scale": true, "beta_initializer": {"class_name": "Zeros", "config": {}}, "gamma_initializer": {"class_name": "Ones", "config": {}}, "moving_mean_initializer": {"class_name": "Zeros", "config": {}}, "moving_variance_initializer": {"class_name": "Ones", "config": {}}, "beta_regularizer": null, "gamma_regularizer": null, "beta_constraint": null, "gamma_constraint": null}, "name": "block4b_project_bn", "inbound_nodes": [[["block4b_project_conv", 0, 0, {}]]]}, {"class_name": "Add", "config": {"name": "block4b_add", "trainable": false, "dtype": "float32"}, "name": "block4b_add", "inbound_nodes": [[["block4b_project_bn", 0, 0, {}], ["block4a_project_bn", 0, 0, {}]]]}, {"class_name": "Conv2D", "config": {"name": "block4c_expand_conv", "trainable": false, "dtype": "float32", "filters": 512, "kernel_size": [1, 1], "strides": [1, 1], "padding": "same", "data_format": "channels_last", "dilation_rate": [1, 1], "groups": 1, "activation": "linear", "use_bias": false, "kernel_initializer": {"class_name": "VarianceScaling", "config": {"scale": 2.0, "mode": "fan_out", "distribution": "truncated_normal", "seed": null}}, "bias_initializer": {"class_name": "Zeros", "config": {}}, "kernel_regularizer": null, "bias_regularizer": null, "activity_regularizer": null, "kernel_constraint": null, "bias_constraint": null}, "name": "block4c_expand_conv", "inbound_nodes": [[["block4b_add", 0, 0, {}]]]}, {"class_name": "BatchNormalization", "config": {"name": "block4c_expand_bn", "trainable": false, "dtype": "float32", "axis": [3], "momentum": 0.9, "epsilon": 0.001, "center": true, "scale": true, "beta_initializer": {"class_name": "Zeros", "config": {}}, "gamma_initializer": {"class_name": "Ones", "config": {}}, "moving_mean_initializer": {"class_name": "Zeros", "config": {}}, "moving_variance_initializer": {"class_name": "Ones", "config": {}}, "beta_regularizer": null, "gamma_regularizer": null, "beta_constraint": null, "gamma_constraint": null}, "name": "block4c_expand_bn", "inbound_nodes": [[["block4c_expand_conv", 0, 0, {}]]]}, {"class_name": "Activation", "config": {"name": "block4c_expand_activation", "trainable": false, "dtype": "float32", "activation": "swish"}, "name": "block4c_expand_activation", "inbound_nodes": [[["block4c_expand_bn", 0, 0, {}]]]}, {"class_name": "DepthwiseConv2D", "config": {"name": "block4c_dwconv2", "trainable": false, "dtype": "float32", "kernel_size": [3, 3], "strides": [1, 1], "padding": "same", "data_format": "channels_last", "dilation_rate": [1, 1], "groups": 1, "activation": "linear", "use_bias": false, "bias_initializer": {"class_name": "Zeros", "config": {}}, "bias_regularizer": null, "activity_regularizer": null, "bias_constraint": null, "depth_multiplier": 1, "depthwise_initializer": {"class_name": "VarianceScaling", "config": {"scale": 2.0, "mode": "fan_out", "distribution": "truncated_normal", "seed": null}}, "depthwise_regularizer": null, "depthwise_constraint": null}, "name": "block4c_dwconv2", "inbound_nodes": [[["block4c_expand_activation", 0, 0, {}]]]}, {"class_name": "BatchNormalization", "config": {"name": "block4c_bn", "trainable": false, "dtype": "float32", "axis": [3], "momentum": 0.9, "epsilon": 0.001, "center": true, "scale": true, "beta_initializer": {"class_name": "Zeros", "config": {}}, "gamma_initializer": {"class_name": "Ones", "config": {}}, "moving_mean_initializer": {"class_name": "Zeros", "config": {}}, "moving_variance_initializer": {"class_name": "Ones", "config": {}}, "beta_regularizer": null, "gamma_regularizer": null, "beta_constraint": null, "gamma_constraint": null}, "name": "block4c_bn", "inbound_nodes": [[["block4c_dwconv2", 0, 0, {}]]]}, {"class_name": "Activation", "config": {"name": "block4c_activation", "trainable": false, "dtype": "float32", "activation": "swish"}, "name": "block4c_activation", "inbound_nodes": [[["block4c_bn", 0, 0, {}]]]}, {"class_name": "GlobalAveragePooling2D", "config": {"name": "block4c_se_squeeze", "trainable": false, "dtype": "float32", "data_format": "channels_last", "keepdims": false}, "name": "block4c_se_squeeze", "inbound_nodes": [[["block4c_activation", 0, 0, {}]]]}, {"class_name": "Reshape", "config": {"name": "block4c_se_reshape", "trainable": false, "dtype": "float32", "target_shape": [1, 1, 512]}, "name": "block4c_se_reshape", "inbound_nodes": [[["block4c_se_squeeze", 0, 0, {}]]]}, {"class_name": "Conv2D", "config": {"name": "block4c_se_reduce", "trainable": false, "dtype": "float32", "filters": 32, "kernel_size": [1, 1], "strides": [1, 1], "padding": "same", "data_format": "channels_last", "dilation_rate": [1, 1], "groups": 1, "activation": "swish", "use_bias": true, "kernel_initializer": {"class_name": "VarianceScaling", "config": {"scale": 2.0, "mode": "fan_out", "distribution": "truncated_normal", "seed": null}}, "bias_initializer": {"class_name": "Zeros", "config": {}}, "kernel_regularizer": null, "bias_regularizer": null, "activity_regularizer": null, "kernel_constraint": null, "bias_constraint": null}, "name": "block4c_se_reduce", "inbound_nodes": [[["block4c_se_reshape", 0, 0, {}]]]}, {"class_name": "Conv2D", "config": {"name": "block4c_se_expand", "trainable": false, "dtype": "float32", "filters": 512, "kernel_size": [1, 1], "strides": [1, 1], "padding": "same", "data_format": "channels_last", "dilation_rate": [1, 1], "groups": 1, "activation": "sigmoid", "use_bias": true, "kernel_initializer": {"class_name": "VarianceScaling", "config": {"scale": 2.0, "mode": "fan_out", "distribution": "truncated_normal", "seed": null}}, "bias_initializer": {"class_name": "Zeros", "config": {}}, "kernel_regularizer": null, "bias_regularizer": null, "activity_regularizer": null, "kernel_constraint": null, "bias_constraint": null}, "name": "block4c_se_expand", "inbound_nodes": [[["block4c_se_reduce", 0, 0, {}]]]}, {"class_name": "Multiply", "config": {"name": "block4c_se_excite", "trainable": false, "dtype": "float32"}, "name": "block4c_se_excite", "inbound_nodes": [[["block4c_activation", 0, 0, {}], ["block4c_se_expand", 0, 0, {}]]]}, {"class_name": "Conv2D", "config": {"name": "block4c_project_conv", "trainable": false, "dtype": "float32", "filters": 128, "kernel_size": [1, 1], "strides": [1, 1], "padding": "same", "data_format": "channels_last", "dilation_rate": [1, 1], "groups": 1, "activation": "linear", "use_bias": false, "kernel_initializer": {"class_name": "VarianceScaling", "config": {"scale": 2.0, "mode": "fan_out", "distribution": "truncated_normal", "seed": null}}, "bias_initializer": {"class_name": "Zeros", "config": {}}, "kernel_regularizer": null, "bias_regularizer": null, "activity_regularizer": null, "kernel_constraint": null, "bias_constraint": null}, "name": "block4c_project_conv", "inbound_nodes": [[["block4c_se_excite", 0, 0, {}]]]}, {"class_name": "BatchNormalization", "config": {"name": "block4c_project_bn", "trainable": false, "dtype": "float32", "axis": [3], "momentum": 0.9, "epsilon": 0.001, "center": true, "scale": true, "beta_initializer": {"class_name": "Zeros", "config": {}}, "gamma_initializer": {"class_name": "Ones", "config": {}}, "moving_mean_initializer": {"class_name": "Zeros", "config": {}}, "moving_variance_initializer": {"class_name": "Ones", "config": {}}, "beta_regularizer": null, "gamma_regularizer": null, "beta_constraint": null, "gamma_constraint": null}, "name": "block4c_project_bn", "inbound_nodes": [[["block4c_project_conv", 0, 0, {}]]]}, {"class_name": "Add", "config": {"name": "block4c_add", "trainable": false, "dtype": "float32"}, "name": "block4c_add", "inbound_nodes": [[["block4c_project_bn", 0, 0, {}], ["block4b_add", 0, 0, {}]]]}, {"class_name": "Conv2D", "config": {"name": "block4d_expand_conv", "trainable": false, "dtype": "float32", "filters": 512, "kernel_size": [1, 1], "strides": [1, 1], "padding": "same", "data_format": "channels_last", "dilation_rate": [1, 1], "groups": 1, "activation": "linear", "use_bias": false, "kernel_initializer": {"class_name": "VarianceScaling", "config": {"scale": 2.0, "mode": "fan_out", "distribution": "truncated_normal", "seed": null}}, "bias_initializer": {"class_name": "Zeros", "config": {}}, "kernel_regularizer": null, "bias_regularizer": null, "activity_regularizer": null, "kernel_constraint": null, "bias_constraint": null}, "name": "block4d_expand_conv", "inbound_nodes": [[["block4c_add", 0, 0, {}]]]}, {"class_name": "BatchNormalization", "config": {"name": "block4d_expand_bn", "trainable": false, "dtype": "float32", "axis": [3], "momentum": 0.9, "epsilon": 0.001, "center": true, "scale": true, "beta_initializer": {"class_name": "Zeros", "config": {}}, "gamma_initializer": {"class_name": "Ones", "config": {}}, "moving_mean_initializer": {"class_name": "Zeros", "config": {}}, "moving_variance_initializer": {"class_name": "Ones", "config": {}}, "beta_regularizer": null, "gamma_regularizer": null, "beta_constraint": null, "gamma_constraint": null}, "name": "block4d_expand_bn", "inbound_nodes": [[["block4d_expand_conv", 0, 0, {}]]]}, {"class_name": "Activation", "config": {"name": "block4d_expand_activation", "trainable": false, "dtype": "float32", "activation": "swish"}, "name": "block4d_expand_activation", "inbound_nodes": [[["block4d_expand_bn", 0, 0, {}]]]}, {"class_name": "DepthwiseConv2D", "config": {"name": "block4d_dwconv2", "trainable": false, "dtype": "float32", "kernel_size": [3, 3], "strides": [1, 1], "padding": "same", "data_format": "channels_last", "dilation_rate": [1, 1], "groups": 1, "activation": "linear", "use_bias": false, "bias_initializer": {"class_name": "Zeros", "config": {}}, "bias_regularizer": null, "activity_regularizer": null, "bias_constraint": null, "depth_multiplier": 1, "depthwise_initializer": {"class_name": "VarianceScaling", "config": {"scale": 2.0, "mode": "fan_out", "distribution": "truncated_normal", "seed": null}}, "depthwise_regularizer": null, "depthwise_constraint": null}, "name": "block4d_dwconv2", "inbound_nodes": [[["block4d_expand_activation", 0, 0, {}]]]}, {"class_name": "BatchNormalization", "config": {"name": "block4d_bn", "trainable": false, "dtype": "float32", "axis": [3], "momentum": 0.9, "epsilon": 0.001, "center": true, "scale": true, "beta_initializer": {"class_name": "Zeros", "config": {}}, "gamma_initializer": {"class_name": "Ones", "config": {}}, "moving_mean_initializer": {"class_name": "Zeros", "config": {}}, "moving_variance_initializer": {"class_name": "Ones", "config": {}}, "beta_regularizer": null, "gamma_regularizer": null, "beta_constraint": null, "gamma_constraint": null}, "name": "block4d_bn", "inbound_nodes": [[["block4d_dwconv2", 0, 0, {}]]]}, {"class_name": "Activation", "config": {"name": "block4d_activation", "trainable": false, "dtype": "float32", "activation": "swish"}, "name": "block4d_activation", "inbound_nodes": [[["block4d_bn", 0, 0, {}]]]}, {"class_name": "GlobalAveragePooling2D", "config": {"name": "block4d_se_squeeze", "trainable": false, "dtype": "float32", "data_format": "channels_last", "keepdims": false}, "name": "block4d_se_squeeze", "inbound_nodes": [[["block4d_activation", 0, 0, {}]]]}, {"class_name": "Reshape", "config": {"name": "block4d_se_reshape", "trainable": false, "dtype": "float32", "target_shape": [1, 1, 512]}, "name": "block4d_se_reshape", "inbound_nodes": [[["block4d_se_squeeze", 0, 0, {}]]]}, {"class_name": "Conv2D", "config": {"name": "block4d_se_reduce", "trainable": false, "dtype": "float32", "filters": 32, "kernel_size": [1, 1], "strides": [1, 1], "padding": "same", "data_format": "channels_last", "dilation_rate": [1, 1], "groups": 1, "activation": "swish", "use_bias": true, "kernel_initializer": {"class_name": "VarianceScaling", "config": {"scale": 2.0, "mode": "fan_out", "distribution": "truncated_normal", "seed": null}}, "bias_initializer": {"class_name": "Zeros", "config": {}}, "kernel_regularizer": null, "bias_regularizer": null, "activity_regularizer": null, "kernel_constraint": null, "bias_constraint": null}, "name": "block4d_se_reduce", "inbound_nodes": [[["block4d_se_reshape", 0, 0, {}]]]}, {"class_name": "Conv2D", "config": {"name": "block4d_se_expand", "trainable": false, "dtype": "float32", "filters": 512, "kernel_size": [1, 1], "strides": [1, 1], "padding": "same", "data_format": "channels_last", "dilation_rate": [1, 1], "groups": 1, "activation": "sigmoid", "use_bias": true, "kernel_initializer": {"class_name": "VarianceScaling", "config": {"scale": 2.0, "mode": "fan_out", "distribution": "truncated_normal", "seed": null}}, "bias_initializer": {"class_name": "Zeros", "config": {}}, "kernel_regularizer": null, "bias_regularizer": null, "activity_regularizer": null, "kernel_constraint": null, "bias_constraint": null}, "name": "block4d_se_expand", "inbound_nodes": [[["block4d_se_reduce", 0, 0, {}]]]}, {"class_name": "Multiply", "config": {"name": "block4d_se_excite", "trainable": false, "dtype": "float32"}, "name": "block4d_se_excite", "inbound_nodes": [[["block4d_activation", 0, 0, {}], ["block4d_se_expand", 0, 0, {}]]]}, {"class_name": "Conv2D", "config": {"name": "block4d_project_conv", "trainable": false, "dtype": "float32", "filters": 128, "kernel_size": [1, 1], "strides": [1, 1], "padding": "same", "data_format": "channels_last", "dilation_rate": [1, 1], "groups": 1, "activation": "linear", "use_bias": false, "kernel_initializer": {"class_name": "VarianceScaling", "config": {"scale": 2.0, "mode": "fan_out", "distribution": "truncated_normal", "seed": null}}, "bias_initializer": {"class_name": "Zeros", "config": {}}, "kernel_regularizer": null, "bias_regularizer": null, "activity_regularizer": null, "kernel_constraint": null, "bias_constraint": null}, "name": "block4d_project_conv", "inbound_nodes": [[["block4d_se_excite", 0, 0, {}]]]}, {"class_name": "BatchNormalization", "config": {"name": "block4d_project_bn", "trainable": false, "dtype": "float32", "axis": [3], "momentum": 0.9, "epsilon": 0.001, "center": true, "scale": true, "beta_initializer": {"class_name": "Zeros", "config": {}}, "gamma_initializer": {"class_name": "Ones", "config": {}}, "moving_mean_initializer": {"class_name": "Zeros", "config": {}}, "moving_variance_initializer": {"class_name": "Ones", "config": {}}, "beta_regularizer": null, "gamma_regularizer": null, "beta_constraint": null, "gamma_constraint": null}, "name": "block4d_project_bn", "inbound_nodes": [[["block4d_project_conv", 0, 0, {}]]]}, {"class_name": "Add", "config": {"name": "block4d_add", "trainable": false, "dtype": "float32"}, "name": "block4d_add", "inbound_nodes": [[["block4d_project_bn", 0, 0, {}], ["block4c_add", 0, 0, {}]]]}, {"class_name": "Conv2D", "config": {"name": "block4e_expand_conv", "trainable": false, "dtype": "float32", "filters": 512, "kernel_size": [1, 1], "strides": [1, 1], "padding": "same", "data_format": "channels_last", "dilation_rate": [1, 1], "groups": 1, "activation": "linear", "use_bias": false, "kernel_initializer": {"class_name": "VarianceScaling", "config": {"scale": 2.0, "mode": "fan_out", "distribution": "truncated_normal", "seed": null}}, "bias_initializer": {"class_name": "Zeros", "config": {}}, "kernel_regularizer": null, "bias_regularizer": null, "activity_regularizer": null, "kernel_constraint": null, "bias_constraint": null}, "name": "block4e_expand_conv", "inbound_nodes": [[["block4d_add", 0, 0, {}]]]}, {"class_name": "BatchNormalization", "config": {"name": "block4e_expand_bn", "trainable": false, "dtype": "float32", "axis": [3], "momentum": 0.9, "epsilon": 0.001, "center": true, "scale": true, "beta_initializer": {"class_name": "Zeros", "config": {}}, "gamma_initializer": {"class_name": "Ones", "config": {}}, "moving_mean_initializer": {"class_name": "Zeros", "config": {}}, "moving_variance_initializer": {"class_name": "Ones", "config": {}}, "beta_regularizer": null, "gamma_regularizer": null, "beta_constraint": null, "gamma_constraint": null}, "name": "block4e_expand_bn", "inbound_nodes": [[["block4e_expand_conv", 0, 0, {}]]]}, {"class_name": "Activation", "config": {"name": "block4e_expand_activation", "trainable": false, "dtype": "float32", "activation": "swish"}, "name": "block4e_expand_activation", "inbound_nodes": [[["block4e_expand_bn", 0, 0, {}]]]}, {"class_name": "DepthwiseConv2D", "config": {"name": "block4e_dwconv2", "trainable": false, "dtype": "float32", "kernel_size": [3, 3], "strides": [1, 1], "padding": "same", "data_format": "channels_last", "dilation_rate": [1, 1], "groups": 1, "activation": "linear", "use_bias": false, "bias_initializer": {"class_name": "Zeros", "config": {}}, "bias_regularizer": null, "activity_regularizer": null, "bias_constraint": null, "depth_multiplier": 1, "depthwise_initializer": {"class_name": "VarianceScaling", "config": {"scale": 2.0, "mode": "fan_out", "distribution": "truncated_normal", "seed": null}}, "depthwise_regularizer": null, "depthwise_constraint": null}, "name": "block4e_dwconv2", "inbound_nodes": [[["block4e_expand_activation", 0, 0, {}]]]}, {"class_name": "BatchNormalization", "config": {"name": "block4e_bn", "trainable": false, "dtype": "float32", "axis": [3], "momentum": 0.9, "epsilon": 0.001, "center": true, "scale": true, "beta_initializer": {"class_name": "Zeros", "config": {}}, "gamma_initializer": {"class_name": "Ones", "config": {}}, "moving_mean_initializer": {"class_name": "Zeros", "config": {}}, "moving_variance_initializer": {"class_name": "Ones", "config": {}}, "beta_regularizer": null, "gamma_regularizer": null, "beta_constraint": null, "gamma_constraint": null}, "name": "block4e_bn", "inbound_nodes": [[["block4e_dwconv2", 0, 0, {}]]]}, {"class_name": "Activation", "config": {"name": "block4e_activation", "trainable": false, "dtype": "float32", "activation": "swish"}, "name": "block4e_activation", "inbound_nodes": [[["block4e_bn", 0, 0, {}]]]}, {"class_name": "GlobalAveragePooling2D", "config": {"name": "block4e_se_squeeze", "trainable": false, "dtype": "float32", "data_format": "channels_last", "keepdims": false}, "name": "block4e_se_squeeze", "inbound_nodes": [[["block4e_activation", 0, 0, {}]]]}, {"class_name": "Reshape", "config": {"name": "block4e_se_reshape", "trainable": false, "dtype": "float32", "target_shape": [1, 1, 512]}, "name": "block4e_se_reshape", "inbound_nodes": [[["block4e_se_squeeze", 0, 0, {}]]]}, {"class_name": "Conv2D", "config": {"name": "block4e_se_reduce", "trainable": false, "dtype": "float32", "filters": 32, "kernel_size": [1, 1], "strides": [1, 1], "padding": "same", "data_format": "channels_last", "dilation_rate": [1, 1], "groups": 1, "activation": "swish", "use_bias": true, "kernel_initializer": {"class_name": "VarianceScaling", "config": {"scale": 2.0, "mode": "fan_out", "distribution": "truncated_normal", "seed": null}}, "bias_initializer": {"class_name": "Zeros", "config": {}}, "kernel_regularizer": null, "bias_regularizer": null, "activity_regularizer": null, "kernel_constraint": null, "bias_constraint": null}, "name": "block4e_se_reduce", "inbound_nodes": [[["block4e_se_reshape", 0, 0, {}]]]}, {"class_name": "Conv2D", "config": {"name": "block4e_se_expand", "trainable": false, "dtype": "float32", "filters": 512, "kernel_size": [1, 1], "strides": [1, 1], "padding": "same", "data_format": "channels_last", "dilation_rate": [1, 1], "groups": 1, "activation": "sigmoid", "use_bias": true, "kernel_initializer": {"class_name": "VarianceScaling", "config": {"scale": 2.0, "mode": "fan_out", "distribution": "truncated_normal", "seed": null}}, "bias_initializer": {"class_name": "Zeros", "config": {}}, "kernel_regularizer": null, "bias_regularizer": null, "activity_regularizer": null, "kernel_constraint": null, "bias_constraint": null}, "name": "block4e_se_expand", "inbound_nodes": [[["block4e_se_reduce", 0, 0, {}]]]}, {"class_name": "Multiply", "config": {"name": "block4e_se_excite", "trainable": false, "dtype": "float32"}, "name": "block4e_se_excite", "inbound_nodes": [[["block4e_activation", 0, 0, {}], ["block4e_se_expand", 0, 0, {}]]]}, {"class_name": "Conv2D", "config": {"name": "block4e_project_conv", "trainable": false, "dtype": "float32", "filters": 128, "kernel_size": [1, 1], "strides": [1, 1], "padding": "same", "data_format": "channels_last", "dilation_rate": [1, 1], "groups": 1, "activation": "linear", "use_bias": false, "kernel_initializer": {"class_name": "VarianceScaling", "config": {"scale": 2.0, "mode": "fan_out", "distribution": "truncated_normal", "seed": null}}, "bias_initializer": {"class_name": "Zeros", "config": {}}, "kernel_regularizer": null, "bias_regularizer": null, "activity_regularizer": null, "kernel_constraint": null, "bias_constraint": null}, "name": "block4e_project_conv", "inbound_nodes": [[["block4e_se_excite", 0, 0, {}]]]}, {"class_name": "BatchNormalization", "config": {"name": "block4e_project_bn", "trainable": false, "dtype": "float32", "axis": [3], "momentum": 0.9, "epsilon": 0.001, "center": true, "scale": true, "beta_initializer": {"class_name": "Zeros", "config": {}}, "gamma_initializer": {"class_name": "Ones", "config": {}}, "moving_mean_initializer": {"class_name": "Zeros", "config": {}}, "moving_variance_initializer": {"class_name": "Ones", "config": {}}, "beta_regularizer": null, "gamma_regularizer": null, "beta_constraint": null, "gamma_constraint": null}, "name": "block4e_project_bn", "inbound_nodes": [[["block4e_project_conv", 0, 0, {}]]]}, {"class_name": "Add", "config": {"name": "block4e_add", "trainable": false, "dtype": "float32"}, "name": "block4e_add", "inbound_nodes": [[["block4e_project_bn", 0, 0, {}], ["block4d_add", 0, 0, {}]]]}, {"class_name": "Conv2D", "config": {"name": "block4f_expand_conv", "trainable": false, "dtype": "float32", "filters": 512, "kernel_size": [1, 1], "strides": [1, 1], "padding": "same", "data_format": "channels_last", "dilation_rate": [1, 1], "groups": 1, "activation": "linear", "use_bias": false, "kernel_initializer": {"class_name": "VarianceScaling", "config": {"scale": 2.0, "mode": "fan_out", "distribution": "truncated_normal", "seed": null}}, "bias_initializer": {"class_name": "Zeros", "config": {}}, "kernel_regularizer": null, "bias_regularizer": null, "activity_regularizer": null, "kernel_constraint": null, "bias_constraint": null}, "name": "block4f_expand_conv", "inbound_nodes": [[["block4e_add", 0, 0, {}]]]}, {"class_name": "BatchNormalization", "config": {"name": "block4f_expand_bn", "trainable": false, "dtype": "float32", "axis": [3], "momentum": 0.9, "epsilon": 0.001, "center": true, "scale": true, "beta_initializer": {"class_name": "Zeros", "config": {}}, "gamma_initializer": {"class_name": "Ones", "config": {}}, "moving_mean_initializer": {"class_name": "Zeros", "config": {}}, "moving_variance_initializer": {"class_name": "Ones", "config": {}}, "beta_regularizer": null, "gamma_regularizer": null, "beta_constraint": null, "gamma_constraint": null}, "name": "block4f_expand_bn", "inbound_nodes": [[["block4f_expand_conv", 0, 0, {}]]]}, {"class_name": "Activation", "config": {"name": "block4f_expand_activation", "trainable": false, "dtype": "float32", "activation": "swish"}, "name": "block4f_expand_activation", "inbound_nodes": [[["block4f_expand_bn", 0, 0, {}]]]}, {"class_name": "DepthwiseConv2D", "config": {"name": "block4f_dwconv2", "trainable": false, "dtype": "float32", "kernel_size": [3, 3], "strides": [1, 1], "padding": "same", "data_format": "channels_last", "dilation_rate": [1, 1], "groups": 1, "activation": "linear", "use_bias": false, "bias_initializer": {"class_name": "Zeros", "config": {}}, "bias_regularizer": null, "activity_regularizer": null, "bias_constraint": null, "depth_multiplier": 1, "depthwise_initializer": {"class_name": "VarianceScaling", "config": {"scale": 2.0, "mode": "fan_out", "distribution": "truncated_normal", "seed": null}}, "depthwise_regularizer": null, "depthwise_constraint": null}, "name": "block4f_dwconv2", "inbound_nodes": [[["block4f_expand_activation", 0, 0, {}]]]}, {"class_name": "BatchNormalization", "config": {"name": "block4f_bn", "trainable": false, "dtype": "float32", "axis": [3], "momentum": 0.9, "epsilon": 0.001, "center": true, "scale": true, "beta_initializer": {"class_name": "Zeros", "config": {}}, "gamma_initializer": {"class_name": "Ones", "config": {}}, "moving_mean_initializer": {"class_name": "Zeros", "config": {}}, "moving_variance_initializer": {"class_name": "Ones", "config": {}}, "beta_regularizer": null, "gamma_regularizer": null, "beta_constraint": null, "gamma_constraint": null}, "name": "block4f_bn", "inbound_nodes": [[["block4f_dwconv2", 0, 0, {}]]]}, {"class_name": "Activation", "config": {"name": "block4f_activation", "trainable": false, "dtype": "float32", "activation": "swish"}, "name": "block4f_activation", "inbound_nodes": [[["block4f_bn", 0, 0, {}]]]}, {"class_name": "GlobalAveragePooling2D", "config": {"name": "block4f_se_squeeze", "trainable": false, "dtype": "float32", "data_format": "channels_last", "keepdims": false}, "name": "block4f_se_squeeze", "inbound_nodes": [[["block4f_activation", 0, 0, {}]]]}, {"class_name": "Reshape", "config": {"name": "block4f_se_reshape", "trainable": false, "dtype": "float32", "target_shape": [1, 1, 512]}, "name": "block4f_se_reshape", "inbound_nodes": [[["block4f_se_squeeze", 0, 0, {}]]]}, {"class_name": "Conv2D", "config": {"name": "block4f_se_reduce", "trainable": false, "dtype": "float32", "filters": 32, "kernel_size": [1, 1], "strides": [1, 1], "padding": "same", "data_format": "channels_last", "dilation_rate": [1, 1], "groups": 1, "activation": "swish", "use_bias": true, "kernel_initializer": {"class_name": "VarianceScaling", "config": {"scale": 2.0, "mode": "fan_out", "distribution": "truncated_normal", "seed": null}}, "bias_initializer": {"class_name": "Zeros", "config": {}}, "kernel_regularizer": null, "bias_regularizer": null, "activity_regularizer": null, "kernel_constraint": null, "bias_constraint": null}, "name": "block4f_se_reduce", "inbound_nodes": [[["block4f_se_reshape", 0, 0, {}]]]}, {"class_name": "Conv2D", "config": {"name": "block4f_se_expand", "trainable": false, "dtype": "float32", "filters": 512, "kernel_size": [1, 1], "strides": [1, 1], "padding": "same", "data_format": "channels_last", "dilation_rate": [1, 1], "groups": 1, "activation": "sigmoid", "use_bias": true, "kernel_initializer": {"class_name": "VarianceScaling", "config": {"scale": 2.0, "mode": "fan_out", "distribution": "truncated_normal", "seed": null}}, "bias_initializer": {"class_name": "Zeros", "config": {}}, "kernel_regularizer": null, "bias_regularizer": null, "activity_regularizer": null, "kernel_constraint": null, "bias_constraint": null}, "name": "block4f_se_expand", "inbound_nodes": [[["block4f_se_reduce", 0, 0, {}]]]}, {"class_name": "Multiply", "config": {"name": "block4f_se_excite", "trainable": false, "dtype": "float32"}, "name": "block4f_se_excite", "inbound_nodes": [[["block4f_activation", 0, 0, {}], ["block4f_se_expand", 0, 0, {}]]]}, {"class_name": "Conv2D", "config": {"name": "block4f_project_conv", "trainable": false, "dtype": "float32", "filters": 128, "kernel_size": [1, 1], "strides": [1, 1], "padding": "same", "data_format": "channels_last", "dilation_rate": [1, 1], "groups": 1, "activation": "linear", "use_bias": false, "kernel_initializer": {"class_name": "VarianceScaling", "config": {"scale": 2.0, "mode": "fan_out", "distribution": "truncated_normal", "seed": null}}, "bias_initializer": {"class_name": "Zeros", "config": {}}, "kernel_regularizer": null, "bias_regularizer": null, "activity_regularizer": null, "kernel_constraint": null, "bias_constraint": null}, "name": "block4f_project_conv", "inbound_nodes": [[["block4f_se_excite", 0, 0, {}]]]}, {"class_name": "BatchNormalization", "config": {"name": "block4f_project_bn", "trainable": false, "dtype": "float32", "axis": [3], "momentum": 0.9, "epsilon": 0.001, "center": true, "scale": true, "beta_initializer": {"class_name": "Zeros", "config": {}}, "gamma_initializer": {"class_name": "Ones", "config": {}}, "moving_mean_initializer": {"class_name": "Zeros", "config": {}}, "moving_variance_initializer": {"class_name": "Ones", "config": {}}, "beta_regularizer": null, "gamma_regularizer": null, "beta_constraint": null, "gamma_constraint": null}, "name": "block4f_project_bn", "inbound_nodes": [[["block4f_project_conv", 0, 0, {}]]]}, {"class_name": "Add", "config": {"name": "block4f_add", "trainable": false, "dtype": "float32"}, "name": "block4f_add", "inbound_nodes": [[["block4f_project_bn", 0, 0, {}], ["block4e_add", 0, 0, {}]]]}, {"class_name": "Conv2D", "config": {"name": "block5a_expand_conv", "trainable": false, "dtype": "float32", "filters": 768, "kernel_size": [1, 1], "strides": [1, 1], "padding": "same", "data_format": "channels_last", "dilation_rate": [1, 1], "groups": 1, "activation": "linear", "use_bias": false, "kernel_initializer": {"class_name": "VarianceScaling", "config": {"scale": 2.0, "mode": "fan_out", "distribution": "truncated_normal", "seed": null}}, "bias_initializer": {"class_name": "Zeros", "config": {}}, "kernel_regularizer": null, "bias_regularizer": null, "activity_regularizer": null, "kernel_constraint": null, "bias_constraint": null}, "name": "block5a_expand_conv", "inbound_nodes": [[["block4f_add", 0, 0, {}]]]}, {"class_name": "BatchNormalization", "config": {"name": "block5a_expand_bn", "trainable": false, "dtype": "float32", "axis": [3], "momentum": 0.9, "epsilon": 0.001, "center": true, "scale": true, "beta_initializer": {"class_name": "Zeros", "config": {}}, "gamma_initializer": {"class_name": "Ones", "config": {}}, "moving_mean_initializer": {"class_name": "Zeros", "config": {}}, "moving_variance_initializer": {"class_name": "Ones", "config": {}}, "beta_regularizer": null, "gamma_regularizer": null, "beta_constraint": null, "gamma_constraint": null}, "name": "block5a_expand_bn", "inbound_nodes": [[["block5a_expand_conv", 0, 0, {}]]]}, {"class_name": "Activation", "config": {"name": "block5a_expand_activation", "trainable": false, "dtype": "float32", "activation": "swish"}, "name": "block5a_expand_activation", "inbound_nodes": [[["block5a_expand_bn", 0, 0, {}]]]}, {"class_name": "DepthwiseConv2D", "config": {"name": "block5a_dwconv2", "trainable": false, "dtype": "float32", "kernel_size": [3, 3], "strides": [1, 1], "padding": "same", "data_format": "channels_last", "dilation_rate": [1, 1], "groups": 1, "activation": "linear", "use_bias": false, "bias_initializer": {"class_name": "Zeros", "config": {}}, "bias_regularizer": null, "activity_regularizer": null, "bias_constraint": null, "depth_multiplier": 1, "depthwise_initializer": {"class_name": "VarianceScaling", "config": {"scale": 2.0, "mode": "fan_out", "distribution": "truncated_normal", "seed": null}}, "depthwise_regularizer": null, "depthwise_constraint": null}, "name": "block5a_dwconv2", "inbound_nodes": [[["block5a_expand_activation", 0, 0, {}]]]}, {"class_name": "BatchNormalization", "config": {"name": "block5a_bn", "trainable": false, "dtype": "float32", "axis": [3], "momentum": 0.9, "epsilon": 0.001, "center": true, "scale": true, "beta_initializer": {"class_name": "Zeros", "config": {}}, "gamma_initializer": {"class_name": "Ones", "config": {}}, "moving_mean_initializer": {"class_name": "Zeros", "config": {}}, "moving_variance_initializer": {"class_name": "Ones", "config": {}}, "beta_regularizer": null, "gamma_regularizer": null, "beta_constraint": null, "gamma_constraint": null}, "name": "block5a_bn", "inbound_nodes": [[["block5a_dwconv2", 0, 0, {}]]]}, {"class_name": "Activation", "config": {"name": "block5a_activation", "trainable": false, "dtype": "float32", "activation": "swish"}, "name": "block5a_activation", "inbound_nodes": [[["block5a_bn", 0, 0, {}]]]}, {"class_name": "GlobalAveragePooling2D", "config": {"name": "block5a_se_squeeze", "trainable": false, "dtype": "float32", "data_format": "channels_last", "keepdims": false}, "name": "block5a_se_squeeze", "inbound_nodes": [[["block5a_activation", 0, 0, {}]]]}, {"class_name": "Reshape", "config": {"name": "block5a_se_reshape", "trainable": false, "dtype": "float32", "target_shape": [1, 1, 768]}, "name": "block5a_se_reshape", "inbound_nodes": [[["block5a_se_squeeze", 0, 0, {}]]]}, {"class_name": "Conv2D", "config": {"name": "block5a_se_reduce", "trainable": false, "dtype": "float32", "filters": 32, "kernel_size": [1, 1], "strides": [1, 1], "padding": "same", "data_format": "channels_last", "dilation_rate": [1, 1], "groups": 1, "activation": "swish", "use_bias": true, "kernel_initializer": {"class_name": "VarianceScaling", "config": {"scale": 2.0, "mode": "fan_out", "distribution": "truncated_normal", "seed": null}}, "bias_initializer": {"class_name": "Zeros", "config": {}}, "kernel_regularizer": null, "bias_regularizer": null, "activity_regularizer": null, "kernel_constraint": null, "bias_constraint": null}, "name": "block5a_se_reduce", "inbound_nodes": [[["block5a_se_reshape", 0, 0, {}]]]}, {"class_name": "Conv2D", "config": {"name": "block5a_se_expand", "trainable": false, "dtype": "float32", "filters": 768, "kernel_size": [1, 1], "strides": [1, 1], "padding": "same", "data_format": "channels_last", "dilation_rate": [1, 1], "groups": 1, "activation": "sigmoid", "use_bias": true, "kernel_initializer": {"class_name": "VarianceScaling", "config": {"scale": 2.0, "mode": "fan_out", "distribution": "truncated_normal", "seed": null}}, "bias_initializer": {"class_name": "Zeros", "config": {}}, "kernel_regularizer": null, "bias_regularizer": null, "activity_regularizer": null, "kernel_constraint": null, "bias_constraint": null}, "name": "block5a_se_expand", "inbound_nodes": [[["block5a_se_reduce", 0, 0, {}]]]}, {"class_name": "Multiply", "config": {"name": "block5a_se_excite", "trainable": false, "dtype": "float32"}, "name": "block5a_se_excite", "inbound_nodes": [[["block5a_activation", 0, 0, {}], ["block5a_se_expand", 0, 0, {}]]]}, {"class_name": "Conv2D", "config": {"name": "block5a_project_conv", "trainable": false, "dtype": "float32", "filters": 160, "kernel_size": [1, 1], "strides": [1, 1], "padding": "same", "data_format": "channels_last", "dilation_rate": [1, 1], "groups": 1, "activation": "linear", "use_bias": false, "kernel_initializer": {"class_name": "VarianceScaling", "config": {"scale": 2.0, "mode": "fan_out", "distribution": "truncated_normal", "seed": null}}, "bias_initializer": {"class_name": "Zeros", "config": {}}, "kernel_regularizer": null, "bias_regularizer": null, "activity_regularizer": null, "kernel_constraint": null, "bias_constraint": null}, "name": "block5a_project_conv", "inbound_nodes": [[["block5a_se_excite", 0, 0, {}]]]}, {"class_name": "BatchNormalization", "config": {"name": "block5a_project_bn", "trainable": false, "dtype": "float32", "axis": [3], "momentum": 0.9, "epsilon": 0.001, "center": true, "scale": true, "beta_initializer": {"class_name": "Zeros", "config": {}}, "gamma_initializer": {"class_name": "Ones", "config": {}}, "moving_mean_initializer": {"class_name": "Zeros", "config": {}}, "moving_variance_initializer": {"class_name": "Ones", "config": {}}, "beta_regularizer": null, "gamma_regularizer": null, "beta_constraint": null, "gamma_constraint": null}, "name": "block5a_project_bn", "inbound_nodes": [[["block5a_project_conv", 0, 0, {}]]]}, {"class_name": "Conv2D", "config": {"name": "block5b_expand_conv", "trainable": false, "dtype": "float32", "filters": 960, "kernel_size": [1, 1], "strides": [1, 1], "padding": "same", "data_format": "channels_last", "dilation_rate": [1, 1], "groups": 1, "activation": "linear", "use_bias": false, "kernel_initializer": {"class_name": "VarianceScaling", "config": {"scale": 2.0, "mode": "fan_out", "distribution": "truncated_normal", "seed": null}}, "bias_initializer": {"class_name": "Zeros", "config": {}}, "kernel_regularizer": null, "bias_regularizer": null, "activity_regularizer": null, "kernel_constraint": null, "bias_constraint": null}, "name": "block5b_expand_conv", "inbound_nodes": [[["block5a_project_bn", 0, 0, {}]]]}, {"class_name": "BatchNormalization", "config": {"name": "block5b_expand_bn", "trainable": false, "dtype": "float32", "axis": [3], "momentum": 0.9, "epsilon": 0.001, "center": true, "scale": true, "beta_initializer": {"class_name": "Zeros", "config": {}}, "gamma_initializer": {"class_name": "Ones", "config": {}}, "moving_mean_initializer": {"class_name": "Zeros", "config": {}}, "moving_variance_initializer": {"class_name": "Ones", "config": {}}, "beta_regularizer": null, "gamma_regularizer": null, "beta_constraint": null, "gamma_constraint": null}, "name": "block5b_expand_bn", "inbound_nodes": [[["block5b_expand_conv", 0, 0, {}]]]}, {"class_name": "Activation", "config": {"name": "block5b_expand_activation", "trainable": false, "dtype": "float32", "activation": "swish"}, "name": "block5b_expand_activation", "inbound_nodes": [[["block5b_expand_bn", 0, 0, {}]]]}, {"class_name": "DepthwiseConv2D", "config": {"name": "block5b_dwconv2", "trainable": false, "dtype": "float32", "kernel_size": [3, 3], "strides": [1, 1], "padding": "same", "data_format": "channels_last", "dilation_rate": [1, 1], "groups": 1, "activation": "linear", "use_bias": false, "bias_initializer": {"class_name": "Zeros", "config": {}}, "bias_regularizer": null, "activity_regularizer": null, "bias_constraint": null, "depth_multiplier": 1, "depthwise_initializer": {"class_name": "VarianceScaling", "config": {"scale": 2.0, "mode": "fan_out", "distribution": "truncated_normal", "seed": null}}, "depthwise_regularizer": null, "depthwise_constraint": null}, "name": "block5b_dwconv2", "inbound_nodes": [[["block5b_expand_activation", 0, 0, {}]]]}, {"class_name": "BatchNormalization", "config": {"name": "block5b_bn", "trainable": false, "dtype": "float32", "axis": [3], "momentum": 0.9, "epsilon": 0.001, "center": true, "scale": true, "beta_initializer": {"class_name": "Zeros", "config": {}}, "gamma_initializer": {"class_name": "Ones", "config": {}}, "moving_mean_initializer": {"class_name": "Zeros", "config": {}}, "moving_variance_initializer": {"class_name": "Ones", "config": {}}, "beta_regularizer": null, "gamma_regularizer": null, "beta_constraint": null, "gamma_constraint": null}, "name": "block5b_bn", "inbound_nodes": [[["block5b_dwconv2", 0, 0, {}]]]}, {"class_name": "Activation", "config": {"name": "block5b_activation", "trainable": false, "dtype": "float32", "activation": "swish"}, "name": "block5b_activation", "inbound_nodes": [[["block5b_bn", 0, 0, {}]]]}, {"class_name": "GlobalAveragePooling2D", "config": {"name": "block5b_se_squeeze", "trainable": false, "dtype": "float32", "data_format": "channels_last", "keepdims": false}, "name": "block5b_se_squeeze", "inbound_nodes": [[["block5b_activation", 0, 0, {}]]]}, {"class_name": "Reshape", "config": {"name": "block5b_se_reshape", "trainable": false, "dtype": "float32", "target_shape": [1, 1, 960]}, "name": "block5b_se_reshape", "inbound_nodes": [[["block5b_se_squeeze", 0, 0, {}]]]}, {"class_name": "Conv2D", "config": {"name": "block5b_se_reduce", "trainable": false, "dtype": "float32", "filters": 40, "kernel_size": [1, 1], "strides": [1, 1], "padding": "same", "data_format": "channels_last", "dilation_rate": [1, 1], "groups": 1, "activation": "swish", "use_bias": true, "kernel_initializer": {"class_name": "VarianceScaling", "config": {"scale": 2.0, "mode": "fan_out", "distribution": "truncated_normal", "seed": null}}, "bias_initializer": {"class_name": "Zeros", "config": {}}, "kernel_regularizer": null, "bias_regularizer": null, "activity_regularizer": null, "kernel_constraint": null, "bias_constraint": null}, "name": "block5b_se_reduce", "inbound_nodes": [[["block5b_se_reshape", 0, 0, {}]]]}, {"class_name": "Conv2D", "config": {"name": "block5b_se_expand", "trainable": false, "dtype": "float32", "filters": 960, "kernel_size": [1, 1], "strides": [1, 1], "padding": "same", "data_format": "channels_last", "dilation_rate": [1, 1], "groups": 1, "activation": "sigmoid", "use_bias": true, "kernel_initializer": {"class_name": "VarianceScaling", "config": {"scale": 2.0, "mode": "fan_out", "distribution": "truncated_normal", "seed": null}}, "bias_initializer": {"class_name": "Zeros", "config": {}}, "kernel_regularizer": null, "bias_regularizer": null, "activity_regularizer": null, "kernel_constraint": null, "bias_constraint": null}, "name": "block5b_se_expand", "inbound_nodes": [[["block5b_se_reduce", 0, 0, {}]]]}, {"class_name": "Multiply", "config": {"name": "block5b_se_excite", "trainable": false, "dtype": "float32"}, "name": "block5b_se_excite", "inbound_nodes": [[["block5b_activation", 0, 0, {}], ["block5b_se_expand", 0, 0, {}]]]}, {"class_name": "Conv2D", "config": {"name": "block5b_project_conv", "trainable": false, "dtype": "float32", "filters": 160, "kernel_size": [1, 1], "strides": [1, 1], "padding": "same", "data_format": "channels_last", "dilation_rate": [1, 1], "groups": 1, "activation": "linear", "use_bias": false, "kernel_initializer": {"class_name": "VarianceScaling", "config": {"scale": 2.0, "mode": "fan_out", "distribution": "truncated_normal", "seed": null}}, "bias_initializer": {"class_name": "Zeros", "config": {}}, "kernel_regularizer": null, "bias_regularizer": null, "activity_regularizer": null, "kernel_constraint": null, "bias_constraint": null}, "name": "block5b_project_conv", "inbound_nodes": [[["block5b_se_excite", 0, 0, {}]]]}, {"class_name": "BatchNormalization", "config": {"name": "block5b_project_bn", "trainable": false, "dtype": "float32", "axis": [3], "momentum": 0.9, "epsilon": 0.001, "center": true, "scale": true, "beta_initializer": {"class_name": "Zeros", "config": {}}, "gamma_initializer": {"class_name": "Ones", "config": {}}, "moving_mean_initializer": {"class_name": "Zeros", "config": {}}, "moving_variance_initializer": {"class_name": "Ones", "config": {}}, "beta_regularizer": null, "gamma_regularizer": null, "beta_constraint": null, "gamma_constraint": null}, "name": "block5b_project_bn", "inbound_nodes": [[["block5b_project_conv", 0, 0, {}]]]}, {"class_name": "Add", "config": {"name": "block5b_add", "trainable": false, "dtype": "float32"}, "name": "block5b_add", "inbound_nodes": [[["block5b_project_bn", 0, 0, {}], ["block5a_project_bn", 0, 0, {}]]]}, {"class_name": "Conv2D", "config": {"name": "block5c_expand_conv", "trainable": false, "dtype": "float32", "filters": 960, "kernel_size": [1, 1], "strides": [1, 1], "padding": "same", "data_format": "channels_last", "dilation_rate": [1, 1], "groups": 1, "activation": "linear", "use_bias": false, "kernel_initializer": {"class_name": "VarianceScaling", "config": {"scale": 2.0, "mode": "fan_out", "distribution": "truncated_normal", "seed": null}}, "bias_initializer": {"class_name": "Zeros", "config": {}}, "kernel_regularizer": null, "bias_regularizer": null, "activity_regularizer": null, "kernel_constraint": null, "bias_constraint": null}, "name": "block5c_expand_conv", "inbound_nodes": [[["block5b_add", 0, 0, {}]]]}, {"class_name": "BatchNormalization", "config": {"name": "block5c_expand_bn", "trainable": false, "dtype": "float32", "axis": [3], "momentum": 0.9, "epsilon": 0.001, "center": true, "scale": true, "beta_initializer": {"class_name": "Zeros", "config": {}}, "gamma_initializer": {"class_name": "Ones", "config": {}}, "moving_mean_initializer": {"class_name": "Zeros", "config": {}}, "moving_variance_initializer": {"class_name": "Ones", "config": {}}, "beta_regularizer": null, "gamma_regularizer": null, "beta_constraint": null, "gamma_constraint": null}, "name": "block5c_expand_bn", "inbound_nodes": [[["block5c_expand_conv", 0, 0, {}]]]}, {"class_name": "Activation", "config": {"name": "block5c_expand_activation", "trainable": false, "dtype": "float32", "activation": "swish"}, "name": "block5c_expand_activation", "inbound_nodes": [[["block5c_expand_bn", 0, 0, {}]]]}, {"class_name": "DepthwiseConv2D", "config": {"name": "block5c_dwconv2", "trainable": false, "dtype": "float32", "kernel_size": [3, 3], "strides": [1, 1], "padding": "same", "data_format": "channels_last", "dilation_rate": [1, 1], "groups": 1, "activation": "linear", "use_bias": false, "bias_initializer": {"class_name": "Zeros", "config": {}}, "bias_regularizer": null, "activity_regularizer": null, "bias_constraint": null, "depth_multiplier": 1, "depthwise_initializer": {"class_name": "VarianceScaling", "config": {"scale": 2.0, "mode": "fan_out", "distribution": "truncated_normal", "seed": null}}, "depthwise_regularizer": null, "depthwise_constraint": null}, "name": "block5c_dwconv2", "inbound_nodes": [[["block5c_expand_activation", 0, 0, {}]]]}, {"class_name": "BatchNormalization", "config": {"name": "block5c_bn", "trainable": false, "dtype": "float32", "axis": [3], "momentum": 0.9, "epsilon": 0.001, "center": true, "scale": true, "beta_initializer": {"class_name": "Zeros", "config": {}}, "gamma_initializer": {"class_name": "Ones", "config": {}}, "moving_mean_initializer": {"class_name": "Zeros", "config": {}}, "moving_variance_initializer": {"class_name": "Ones", "config": {}}, "beta_regularizer": null, "gamma_regularizer": null, "beta_constraint": null, "gamma_constraint": null}, "name": "block5c_bn", "inbound_nodes": [[["block5c_dwconv2", 0, 0, {}]]]}, {"class_name": "Activation", "config": {"name": "block5c_activation", "trainable": false, "dtype": "float32", "activation": "swish"}, "name": "block5c_activation", "inbound_nodes": [[["block5c_bn", 0, 0, {}]]]}, {"class_name": "GlobalAveragePooling2D", "config": {"name": "block5c_se_squeeze", "trainable": false, "dtype": "float32", "data_format": "channels_last", "keepdims": false}, "name": "block5c_se_squeeze", "inbound_nodes": [[["block5c_activation", 0, 0, {}]]]}, {"class_name": "Reshape", "config": {"name": "block5c_se_reshape", "trainable": false, "dtype": "float32", "target_shape": [1, 1, 960]}, "name": "block5c_se_reshape", "inbound_nodes": [[["block5c_se_squeeze", 0, 0, {}]]]}, {"class_name": "Conv2D", "config": {"name": "block5c_se_reduce", "trainable": false, "dtype": "float32", "filters": 40, "kernel_size": [1, 1], "strides": [1, 1], "padding": "same", "data_format": "channels_last", "dilation_rate": [1, 1], "groups": 1, "activation": "swish", "use_bias": true, "kernel_initializer": {"class_name": "VarianceScaling", "config": {"scale": 2.0, "mode": "fan_out", "distribution": "truncated_normal", "seed": null}}, "bias_initializer": {"class_name": "Zeros", "config": {}}, "kernel_regularizer": null, "bias_regularizer": null, "activity_regularizer": null, "kernel_constraint": null, "bias_constraint": null}, "name": "block5c_se_reduce", "inbound_nodes": [[["block5c_se_reshape", 0, 0, {}]]]}, {"class_name": "Conv2D", "config": {"name": "block5c_se_expand", "trainable": false, "dtype": "float32", "filters": 960, "kernel_size": [1, 1], "strides": [1, 1], "padding": "same", "data_format": "channels_last", "dilation_rate": [1, 1], "groups": 1, "activation": "sigmoid", "use_bias": true, "kernel_initializer": {"class_name": "VarianceScaling", "config": {"scale": 2.0, "mode": "fan_out", "distribution": "truncated_normal", "seed": null}}, "bias_initializer": {"class_name": "Zeros", "config": {}}, "kernel_regularizer": null, "bias_regularizer": null, "activity_regularizer": null, "kernel_constraint": null, "bias_constraint": null}, "name": "block5c_se_expand", "inbound_nodes": [[["block5c_se_reduce", 0, 0, {}]]]}, {"class_name": "Multiply", "config": {"name": "block5c_se_excite", "trainable": false, "dtype": "float32"}, "name": "block5c_se_excite", "inbound_nodes": [[["block5c_activation", 0, 0, {}], ["block5c_se_expand", 0, 0, {}]]]}, {"class_name": "Conv2D", "config": {"name": "block5c_project_conv", "trainable": false, "dtype": "float32", "filters": 160, "kernel_size": [1, 1], "strides": [1, 1], "padding": "same", "data_format": "channels_last", "dilation_rate": [1, 1], "groups": 1, "activation": "linear", "use_bias": false, "kernel_initializer": {"class_name": "VarianceScaling", "config": {"scale": 2.0, "mode": "fan_out", "distribution": "truncated_normal", "seed": null}}, "bias_initializer": {"class_name": "Zeros", "config": {}}, "kernel_regularizer": null, "bias_regularizer": null, "activity_regularizer": null, "kernel_constraint": null, "bias_constraint": null}, "name": "block5c_project_conv", "inbound_nodes": [[["block5c_se_excite", 0, 0, {}]]]}, {"class_name": "BatchNormalization", "config": {"name": "block5c_project_bn", "trainable": false, "dtype": "float32", "axis": [3], "momentum": 0.9, "epsilon": 0.001, "center": true, "scale": true, "beta_initializer": {"class_name": "Zeros", "config": {}}, "gamma_initializer": {"class_name": "Ones", "config": {}}, "moving_mean_initializer": {"class_name": "Zeros", "config": {}}, "moving_variance_initializer": {"class_name": "Ones", "config": {}}, "beta_regularizer": null, "gamma_regularizer": null, "beta_constraint": null, "gamma_constraint": null}, "name": "block5c_project_bn", "inbound_nodes": [[["block5c_project_conv", 0, 0, {}]]]}, {"class_name": "Add", "config": {"name": "block5c_add", "trainable": false, "dtype": "float32"}, "name": "block5c_add", "inbound_nodes": [[["block5c_project_bn", 0, 0, {}], ["block5b_add", 0, 0, {}]]]}, {"class_name": "Conv2D", "config": {"name": "block5d_expand_conv", "trainable": false, "dtype": "float32", "filters": 960, "kernel_size": [1, 1], "strides": [1, 1], "padding": "same", "data_format": "channels_last", "dilation_rate": [1, 1], "groups": 1, "activation": "linear", "use_bias": false, "kernel_initializer": {"class_name": "VarianceScaling", "config": {"scale": 2.0, "mode": "fan_out", "distribution": "truncated_normal", "seed": null}}, "bias_initializer": {"class_name": "Zeros", "config": {}}, "kernel_regularizer": null, "bias_regularizer": null, "activity_regularizer": null, "kernel_constraint": null, "bias_constraint": null}, "name": "block5d_expand_conv", "inbound_nodes": [[["block5c_add", 0, 0, {}]]]}, {"class_name": "BatchNormalization", "config": {"name": "block5d_expand_bn", "trainable": false, "dtype": "float32", "axis": [3], "momentum": 0.9, "epsilon": 0.001, "center": true, "scale": true, "beta_initializer": {"class_name": "Zeros", "config": {}}, "gamma_initializer": {"class_name": "Ones", "config": {}}, "moving_mean_initializer": {"class_name": "Zeros", "config": {}}, "moving_variance_initializer": {"class_name": "Ones", "config": {}}, "beta_regularizer": null, "gamma_regularizer": null, "beta_constraint": null, "gamma_constraint": null}, "name": "block5d_expand_bn", "inbound_nodes": [[["block5d_expand_conv", 0, 0, {}]]]}, {"class_name": "Activation", "config": {"name": "block5d_expand_activation", "trainable": false, "dtype": "float32", "activation": "swish"}, "name": "block5d_expand_activation", "inbound_nodes": [[["block5d_expand_bn", 0, 0, {}]]]}, {"class_name": "DepthwiseConv2D", "config": {"name": "block5d_dwconv2", "trainable": false, "dtype": "float32", "kernel_size": [3, 3], "strides": [1, 1], "padding": "same", "data_format": "channels_last", "dilation_rate": [1, 1], "groups": 1, "activation": "linear", "use_bias": false, "bias_initializer": {"class_name": "Zeros", "config": {}}, "bias_regularizer": null, "activity_regularizer": null, "bias_constraint": null, "depth_multiplier": 1, "depthwise_initializer": {"class_name": "VarianceScaling", "config": {"scale": 2.0, "mode": "fan_out", "distribution": "truncated_normal", "seed": null}}, "depthwise_regularizer": null, "depthwise_constraint": null}, "name": "block5d_dwconv2", "inbound_nodes": [[["block5d_expand_activation", 0, 0, {}]]]}, {"class_name": "BatchNormalization", "config": {"name": "block5d_bn", "trainable": false, "dtype": "float32", "axis": [3], "momentum": 0.9, "epsilon": 0.001, "center": true, "scale": true, "beta_initializer": {"class_name": "Zeros", "config": {}}, "gamma_initializer": {"class_name": "Ones", "config": {}}, "moving_mean_initializer": {"class_name": "Zeros", "config": {}}, "moving_variance_initializer": {"class_name": "Ones", "config": {}}, "beta_regularizer": null, "gamma_regularizer": null, "beta_constraint": null, "gamma_constraint": null}, "name": "block5d_bn", "inbound_nodes": [[["block5d_dwconv2", 0, 0, {}]]]}, {"class_name": "Activation", "config": {"name": "block5d_activation", "trainable": false, "dtype": "float32", "activation": "swish"}, "name": "block5d_activation", "inbound_nodes": [[["block5d_bn", 0, 0, {}]]]}, {"class_name": "GlobalAveragePooling2D", "config": {"name": "block5d_se_squeeze", "trainable": false, "dtype": "float32", "data_format": "channels_last", "keepdims": false}, "name": "block5d_se_squeeze", "inbound_nodes": [[["block5d_activation", 0, 0, {}]]]}, {"class_name": "Reshape", "config": {"name": "block5d_se_reshape", "trainable": false, "dtype": "float32", "target_shape": [1, 1, 960]}, "name": "block5d_se_reshape", "inbound_nodes": [[["block5d_se_squeeze", 0, 0, {}]]]}, {"class_name": "Conv2D", "config": {"name": "block5d_se_reduce", "trainable": false, "dtype": "float32", "filters": 40, "kernel_size": [1, 1], "strides": [1, 1], "padding": "same", "data_format": "channels_last", "dilation_rate": [1, 1], "groups": 1, "activation": "swish", "use_bias": true, "kernel_initializer": {"class_name": "VarianceScaling", "config": {"scale": 2.0, "mode": "fan_out", "distribution": "truncated_normal", "seed": null}}, "bias_initializer": {"class_name": "Zeros", "config": {}}, "kernel_regularizer": null, "bias_regularizer": null, "activity_regularizer": null, "kernel_constraint": null, "bias_constraint": null}, "name": "block5d_se_reduce", "inbound_nodes": [[["block5d_se_reshape", 0, 0, {}]]]}, {"class_name": "Conv2D", "config": {"name": "block5d_se_expand", "trainable": false, "dtype": "float32", "filters": 960, "kernel_size": [1, 1], "strides": [1, 1], "padding": "same", "data_format": "channels_last", "dilation_rate": [1, 1], "groups": 1, "activation": "sigmoid", "use_bias": true, "kernel_initializer": {"class_name": "VarianceScaling", "config": {"scale": 2.0, "mode": "fan_out", "distribution": "truncated_normal", "seed": null}}, "bias_initializer": {"class_name": "Zeros", "config": {}}, "kernel_regularizer": null, "bias_regularizer": null, "activity_regularizer": null, "kernel_constraint": null, "bias_constraint": null}, "name": "block5d_se_expand", "inbound_nodes": [[["block5d_se_reduce", 0, 0, {}]]]}, {"class_name": "Multiply", "config": {"name": "block5d_se_excite", "trainable": false, "dtype": "float32"}, "name": "block5d_se_excite", "inbound_nodes": [[["block5d_activation", 0, 0, {}], ["block5d_se_expand", 0, 0, {}]]]}, {"class_name": "Conv2D", "config": {"name": "block5d_project_conv", "trainable": false, "dtype": "float32", "filters": 160, "kernel_size": [1, 1], "strides": [1, 1], "padding": "same", "data_format": "channels_last", "dilation_rate": [1, 1], "groups": 1, "activation": "linear", "use_bias": false, "kernel_initializer": {"class_name": "VarianceScaling", "config": {"scale": 2.0, "mode": "fan_out", "distribution": "truncated_normal", "seed": null}}, "bias_initializer": {"class_name": "Zeros", "config": {}}, "kernel_regularizer": null, "bias_regularizer": null, "activity_regularizer": null, "kernel_constraint": null, "bias_constraint": null}, "name": "block5d_project_conv", "inbound_nodes": [[["block5d_se_excite", 0, 0, {}]]]}, {"class_name": "BatchNormalization", "config": {"name": "block5d_project_bn", "trainable": false, "dtype": "float32", "axis": [3], "momentum": 0.9, "epsilon": 0.001, "center": true, "scale": true, "beta_initializer": {"class_name": "Zeros", "config": {}}, "gamma_initializer": {"class_name": "Ones", "config": {}}, "moving_mean_initializer": {"class_name": "Zeros", "config": {}}, "moving_variance_initializer": {"class_name": "Ones", "config": {}}, "beta_regularizer": null, "gamma_regularizer": null, "beta_constraint": null, "gamma_constraint": null}, "name": "block5d_project_bn", "inbound_nodes": [[["block5d_project_conv", 0, 0, {}]]]}, {"class_name": "Add", "config": {"name": "block5d_add", "trainable": false, "dtype": "float32"}, "name": "block5d_add", "inbound_nodes": [[["block5d_project_bn", 0, 0, {}], ["block5c_add", 0, 0, {}]]]}, {"class_name": "Conv2D", "config": {"name": "block5e_expand_conv", "trainable": false, "dtype": "float32", "filters": 960, "kernel_size": [1, 1], "strides": [1, 1], "padding": "same", "data_format": "channels_last", "dilation_rate": [1, 1], "groups": 1, "activation": "linear", "use_bias": false, "kernel_initializer": {"class_name": "VarianceScaling", "config": {"scale": 2.0, "mode": "fan_out", "distribution": "truncated_normal", "seed": null}}, "bias_initializer": {"class_name": "Zeros", "config": {}}, "kernel_regularizer": null, "bias_regularizer": null, "activity_regularizer": null, "kernel_constraint": null, "bias_constraint": null}, "name": "block5e_expand_conv", "inbound_nodes": [[["block5d_add", 0, 0, {}]]]}, {"class_name": "BatchNormalization", "config": {"name": "block5e_expand_bn", "trainable": false, "dtype": "float32", "axis": [3], "momentum": 0.9, "epsilon": 0.001, "center": true, "scale": true, "beta_initializer": {"class_name": "Zeros", "config": {}}, "gamma_initializer": {"class_name": "Ones", "config": {}}, "moving_mean_initializer": {"class_name": "Zeros", "config": {}}, "moving_variance_initializer": {"class_name": "Ones", "config": {}}, "beta_regularizer": null, "gamma_regularizer": null, "beta_constraint": null, "gamma_constraint": null}, "name": "block5e_expand_bn", "inbound_nodes": [[["block5e_expand_conv", 0, 0, {}]]]}, {"class_name": "Activation", "config": {"name": "block5e_expand_activation", "trainable": false, "dtype": "float32", "activation": "swish"}, "name": "block5e_expand_activation", "inbound_nodes": [[["block5e_expand_bn", 0, 0, {}]]]}, {"class_name": "DepthwiseConv2D", "config": {"name": "block5e_dwconv2", "trainable": false, "dtype": "float32", "kernel_size": [3, 3], "strides": [1, 1], "padding": "same", "data_format": "channels_last", "dilation_rate": [1, 1], "groups": 1, "activation": "linear", "use_bias": false, "bias_initializer": {"class_name": "Zeros", "config": {}}, "bias_regularizer": null, "activity_regularizer": null, "bias_constraint": null, "depth_multiplier": 1, "depthwise_initializer": {"class_name": "VarianceScaling", "config": {"scale": 2.0, "mode": "fan_out", "distribution": "truncated_normal", "seed": null}}, "depthwise_regularizer": null, "depthwise_constraint": null}, "name": "block5e_dwconv2", "inbound_nodes": [[["block5e_expand_activation", 0, 0, {}]]]}, {"class_name": "BatchNormalization", "config": {"name": "block5e_bn", "trainable": false, "dtype": "float32", "axis": [3], "momentum": 0.9, "epsilon": 0.001, "center": true, "scale": true, "beta_initializer": {"class_name": "Zeros", "config": {}}, "gamma_initializer": {"class_name": "Ones", "config": {}}, "moving_mean_initializer": {"class_name": "Zeros", "config": {}}, "moving_variance_initializer": {"class_name": "Ones", "config": {}}, "beta_regularizer": null, "gamma_regularizer": null, "beta_constraint": null, "gamma_constraint": null}, "name": "block5e_bn", "inbound_nodes": [[["block5e_dwconv2", 0, 0, {}]]]}, {"class_name": "Activation", "config": {"name": "block5e_activation", "trainable": false, "dtype": "float32", "activation": "swish"}, "name": "block5e_activation", "inbound_nodes": [[["block5e_bn", 0, 0, {}]]]}, {"class_name": "GlobalAveragePooling2D", "config": {"name": "block5e_se_squeeze", "trainable": false, "dtype": "float32", "data_format": "channels_last", "keepdims": false}, "name": "block5e_se_squeeze", "inbound_nodes": [[["block5e_activation", 0, 0, {}]]]}, {"class_name": "Reshape", "config": {"name": "block5e_se_reshape", "trainable": false, "dtype": "float32", "target_shape": [1, 1, 960]}, "name": "block5e_se_reshape", "inbound_nodes": [[["block5e_se_squeeze", 0, 0, {}]]]}, {"class_name": "Conv2D", "config": {"name": "block5e_se_reduce", "trainable": false, "dtype": "float32", "filters": 40, "kernel_size": [1, 1], "strides": [1, 1], "padding": "same", "data_format": "channels_last", "dilation_rate": [1, 1], "groups": 1, "activation": "swish", "use_bias": true, "kernel_initializer": {"class_name": "VarianceScaling", "config": {"scale": 2.0, "mode": "fan_out", "distribution": "truncated_normal", "seed": null}}, "bias_initializer": {"class_name": "Zeros", "config": {}}, "kernel_regularizer": null, "bias_regularizer": null, "activity_regularizer": null, "kernel_constraint": null, "bias_constraint": null}, "name": "block5e_se_reduce", "inbound_nodes": [[["block5e_se_reshape", 0, 0, {}]]]}, {"class_name": "Conv2D", "config": {"name": "block5e_se_expand", "trainable": false, "dtype": "float32", "filters": 960, "kernel_size": [1, 1], "strides": [1, 1], "padding": "same", "data_format": "channels_last", "dilation_rate": [1, 1], "groups": 1, "activation": "sigmoid", "use_bias": true, "kernel_initializer": {"class_name": "VarianceScaling", "config": {"scale": 2.0, "mode": "fan_out", "distribution": "truncated_normal", "seed": null}}, "bias_initializer": {"class_name": "Zeros", "config": {}}, "kernel_regularizer": null, "bias_regularizer": null, "activity_regularizer": null, "kernel_constraint": null, "bias_constraint": null}, "name": "block5e_se_expand", "inbound_nodes": [[["block5e_se_reduce", 0, 0, {}]]]}, {"class_name": "Multiply", "config": {"name": "block5e_se_excite", "trainable": false, "dtype": "float32"}, "name": "block5e_se_excite", "inbound_nodes": [[["block5e_activation", 0, 0, {}], ["block5e_se_expand", 0, 0, {}]]]}, {"class_name": "Conv2D", "config": {"name": "block5e_project_conv", "trainable": false, "dtype": "float32", "filters": 160, "kernel_size": [1, 1], "strides": [1, 1], "padding": "same", "data_format": "channels_last", "dilation_rate": [1, 1], "groups": 1, "activation": "linear", "use_bias": false, "kernel_initializer": {"class_name": "VarianceScaling", "config": {"scale": 2.0, "mode": "fan_out", "distribution": "truncated_normal", "seed": null}}, "bias_initializer": {"class_name": "Zeros", "config": {}}, "kernel_regularizer": null, "bias_regularizer": null, "activity_regularizer": null, "kernel_constraint": null, "bias_constraint": null}, "name": "block5e_project_conv", "inbound_nodes": [[["block5e_se_excite", 0, 0, {}]]]}, {"class_name": "BatchNormalization", "config": {"name": "block5e_project_bn", "trainable": false, "dtype": "float32", "axis": [3], "momentum": 0.9, "epsilon": 0.001, "center": true, "scale": true, "beta_initializer": {"class_name": "Zeros", "config": {}}, "gamma_initializer": {"class_name": "Ones", "config": {}}, "moving_mean_initializer": {"class_name": "Zeros", "config": {}}, "moving_variance_initializer": {"class_name": "Ones", "config": {}}, "beta_regularizer": null, "gamma_regularizer": null, "beta_constraint": null, "gamma_constraint": null}, "name": "block5e_project_bn", "inbound_nodes": [[["block5e_project_conv", 0, 0, {}]]]}, {"class_name": "Add", "config": {"name": "block5e_add", "trainable": false, "dtype": "float32"}, "name": "block5e_add", "inbound_nodes": [[["block5e_project_bn", 0, 0, {}], ["block5d_add", 0, 0, {}]]]}, {"class_name": "Conv2D", "config": {"name": "block5f_expand_conv", "trainable": false, "dtype": "float32", "filters": 960, "kernel_size": [1, 1], "strides": [1, 1], "padding": "same", "data_format": "channels_last", "dilation_rate": [1, 1], "groups": 1, "activation": "linear", "use_bias": false, "kernel_initializer": {"class_name": "VarianceScaling", "config": {"scale": 2.0, "mode": "fan_out", "distribution": "truncated_normal", "seed": null}}, "bias_initializer": {"class_name": "Zeros", "config": {}}, "kernel_regularizer": null, "bias_regularizer": null, "activity_regularizer": null, "kernel_constraint": null, "bias_constraint": null}, "name": "block5f_expand_conv", "inbound_nodes": [[["block5e_add", 0, 0, {}]]]}, {"class_name": "BatchNormalization", "config": {"name": "block5f_expand_bn", "trainable": false, "dtype": "float32", "axis": [3], "momentum": 0.9, "epsilon": 0.001, "center": true, "scale": true, "beta_initializer": {"class_name": "Zeros", "config": {}}, "gamma_initializer": {"class_name": "Ones", "config": {}}, "moving_mean_initializer": {"class_name": "Zeros", "config": {}}, "moving_variance_initializer": {"class_name": "Ones", "config": {}}, "beta_regularizer": null, "gamma_regularizer": null, "beta_constraint": null, "gamma_constraint": null}, "name": "block5f_expand_bn", "inbound_nodes": [[["block5f_expand_conv", 0, 0, {}]]]}, {"class_name": "Activation", "config": {"name": "block5f_expand_activation", "trainable": false, "dtype": "float32", "activation": "swish"}, "name": "block5f_expand_activation", "inbound_nodes": [[["block5f_expand_bn", 0, 0, {}]]]}, {"class_name": "DepthwiseConv2D", "config": {"name": "block5f_dwconv2", "trainable": false, "dtype": "float32", "kernel_size": [3, 3], "strides": [1, 1], "padding": "same", "data_format": "channels_last", "dilation_rate": [1, 1], "groups": 1, "activation": "linear", "use_bias": false, "bias_initializer": {"class_name": "Zeros", "config": {}}, "bias_regularizer": null, "activity_regularizer": null, "bias_constraint": null, "depth_multiplier": 1, "depthwise_initializer": {"class_name": "VarianceScaling", "config": {"scale": 2.0, "mode": "fan_out", "distribution": "truncated_normal", "seed": null}}, "depthwise_regularizer": null, "depthwise_constraint": null}, "name": "block5f_dwconv2", "inbound_nodes": [[["block5f_expand_activation", 0, 0, {}]]]}, {"class_name": "BatchNormalization", "config": {"name": "block5f_bn", "trainable": false, "dtype": "float32", "axis": [3], "momentum": 0.9, "epsilon": 0.001, "center": true, "scale": true, "beta_initializer": {"class_name": "Zeros", "config": {}}, "gamma_initializer": {"class_name": "Ones", "config": {}}, "moving_mean_initializer": {"class_name": "Zeros", "config": {}}, "moving_variance_initializer": {"class_name": "Ones", "config": {}}, "beta_regularizer": null, "gamma_regularizer": null, "beta_constraint": null, "gamma_constraint": null}, "name": "block5f_bn", "inbound_nodes": [[["block5f_dwconv2", 0, 0, {}]]]}, {"class_name": "Activation", "config": {"name": "block5f_activation", "trainable": false, "dtype": "float32", "activation": "swish"}, "name": "block5f_activation", "inbound_nodes": [[["block5f_bn", 0, 0, {}]]]}, {"class_name": "GlobalAveragePooling2D", "config": {"name": "block5f_se_squeeze", "trainable": false, "dtype": "float32", "data_format": "channels_last", "keepdims": false}, "name": "block5f_se_squeeze", "inbound_nodes": [[["block5f_activation", 0, 0, {}]]]}, {"class_name": "Reshape", "config": {"name": "block5f_se_reshape", "trainable": false, "dtype": "float32", "target_shape": [1, 1, 960]}, "name": "block5f_se_reshape", "inbound_nodes": [[["block5f_se_squeeze", 0, 0, {}]]]}, {"class_name": "Conv2D", "config": {"name": "block5f_se_reduce", "trainable": false, "dtype": "float32", "filters": 40, "kernel_size": [1, 1], "strides": [1, 1], "padding": "same", "data_format": "channels_last", "dilation_rate": [1, 1], "groups": 1, "activation": "swish", "use_bias": true, "kernel_initializer": {"class_name": "VarianceScaling", "config": {"scale": 2.0, "mode": "fan_out", "distribution": "truncated_normal", "seed": null}}, "bias_initializer": {"class_name": "Zeros", "config": {}}, "kernel_regularizer": null, "bias_regularizer": null, "activity_regularizer": null, "kernel_constraint": null, "bias_constraint": null}, "name": "block5f_se_reduce", "inbound_nodes": [[["block5f_se_reshape", 0, 0, {}]]]}, {"class_name": "Conv2D", "config": {"name": "block5f_se_expand", "trainable": false, "dtype": "float32", "filters": 960, "kernel_size": [1, 1], "strides": [1, 1], "padding": "same", "data_format": "channels_last", "dilation_rate": [1, 1], "groups": 1, "activation": "sigmoid", "use_bias": true, "kernel_initializer": {"class_name": "VarianceScaling", "config": {"scale": 2.0, "mode": "fan_out", "distribution": "truncated_normal", "seed": null}}, "bias_initializer": {"class_name": "Zeros", "config": {}}, "kernel_regularizer": null, "bias_regularizer": null, "activity_regularizer": null, "kernel_constraint": null, "bias_constraint": null}, "name": "block5f_se_expand", "inbound_nodes": [[["block5f_se_reduce", 0, 0, {}]]]}, {"class_name": "Multiply", "config": {"name": "block5f_se_excite", "trainable": false, "dtype": "float32"}, "name": "block5f_se_excite", "inbound_nodes": [[["block5f_activation", 0, 0, {}], ["block5f_se_expand", 0, 0, {}]]]}, {"class_name": "Conv2D", "config": {"name": "block5f_project_conv", "trainable": false, "dtype": "float32", "filters": 160, "kernel_size": [1, 1], "strides": [1, 1], "padding": "same", "data_format": "channels_last", "dilation_rate": [1, 1], "groups": 1, "activation": "linear", "use_bias": false, "kernel_initializer": {"class_name": "VarianceScaling", "config": {"scale": 2.0, "mode": "fan_out", "distribution": "truncated_normal", "seed": null}}, "bias_initializer": {"class_name": "Zeros", "config": {}}, "kernel_regularizer": null, "bias_regularizer": null, "activity_regularizer": null, "kernel_constraint": null, "bias_constraint": null}, "name": "block5f_project_conv", "inbound_nodes": [[["block5f_se_excite", 0, 0, {}]]]}, {"class_name": "BatchNormalization", "config": {"name": "block5f_project_bn", "trainable": false, "dtype": "float32", "axis": [3], "momentum": 0.9, "epsilon": 0.001, "center": true, "scale": true, "beta_initializer": {"class_name": "Zeros", "config": {}}, "gamma_initializer": {"class_name": "Ones", "config": {}}, "moving_mean_initializer": {"class_name": "Zeros", "config": {}}, "moving_variance_initializer": {"class_name": "Ones", "config": {}}, "beta_regularizer": null, "gamma_regularizer": null, "beta_constraint": null, "gamma_constraint": null}, "name": "block5f_project_bn", "inbound_nodes": [[["block5f_project_conv", 0, 0, {}]]]}, {"class_name": "Add", "config": {"name": "block5f_add", "trainable": false, "dtype": "float32"}, "name": "block5f_add", "inbound_nodes": [[["block5f_project_bn", 0, 0, {}], ["block5e_add", 0, 0, {}]]]}, {"class_name": "Conv2D", "config": {"name": "block5g_expand_conv", "trainable": false, "dtype": "float32", "filters": 960, "kernel_size": [1, 1], "strides": [1, 1], "padding": "same", "data_format": "channels_last", "dilation_rate": [1, 1], "groups": 1, "activation": "linear", "use_bias": false, "kernel_initializer": {"class_name": "VarianceScaling", "config": {"scale": 2.0, "mode": "fan_out", "distribution": "truncated_normal", "seed": null}}, "bias_initializer": {"class_name": "Zeros", "config": {}}, "kernel_regularizer": null, "bias_regularizer": null, "activity_regularizer": null, "kernel_constraint": null, "bias_constraint": null}, "name": "block5g_expand_conv", "inbound_nodes": [[["block5f_add", 0, 0, {}]]]}, {"class_name": "BatchNormalization", "config": {"name": "block5g_expand_bn", "trainable": false, "dtype": "float32", "axis": [3], "momentum": 0.9, "epsilon": 0.001, "center": true, "scale": true, "beta_initializer": {"class_name": "Zeros", "config": {}}, "gamma_initializer": {"class_name": "Ones", "config": {}}, "moving_mean_initializer": {"class_name": "Zeros", "config": {}}, "moving_variance_initializer": {"class_name": "Ones", "config": {}}, "beta_regularizer": null, "gamma_regularizer": null, "beta_constraint": null, "gamma_constraint": null}, "name": "block5g_expand_bn", "inbound_nodes": [[["block5g_expand_conv", 0, 0, {}]]]}, {"class_name": "Activation", "config": {"name": "block5g_expand_activation", "trainable": false, "dtype": "float32", "activation": "swish"}, "name": "block5g_expand_activation", "inbound_nodes": [[["block5g_expand_bn", 0, 0, {}]]]}, {"class_name": "DepthwiseConv2D", "config": {"name": "block5g_dwconv2", "trainable": false, "dtype": "float32", "kernel_size": [3, 3], "strides": [1, 1], "padding": "same", "data_format": "channels_last", "dilation_rate": [1, 1], "groups": 1, "activation": "linear", "use_bias": false, "bias_initializer": {"class_name": "Zeros", "config": {}}, "bias_regularizer": null, "activity_regularizer": null, "bias_constraint": null, "depth_multiplier": 1, "depthwise_initializer": {"class_name": "VarianceScaling", "config": {"scale": 2.0, "mode": "fan_out", "distribution": "truncated_normal", "seed": null}}, "depthwise_regularizer": null, "depthwise_constraint": null}, "name": "block5g_dwconv2", "inbound_nodes": [[["block5g_expand_activation", 0, 0, {}]]]}, {"class_name": "BatchNormalization", "config": {"name": "block5g_bn", "trainable": false, "dtype": "float32", "axis": [3], "momentum": 0.9, "epsilon": 0.001, "center": true, "scale": true, "beta_initializer": {"class_name": "Zeros", "config": {}}, "gamma_initializer": {"class_name": "Ones", "config": {}}, "moving_mean_initializer": {"class_name": "Zeros", "config": {}}, "moving_variance_initializer": {"class_name": "Ones", "config": {}}, "beta_regularizer": null, "gamma_regularizer": null, "beta_constraint": null, "gamma_constraint": null}, "name": "block5g_bn", "inbound_nodes": [[["block5g_dwconv2", 0, 0, {}]]]}, {"class_name": "Activation", "config": {"name": "block5g_activation", "trainable": false, "dtype": "float32", "activation": "swish"}, "name": "block5g_activation", "inbound_nodes": [[["block5g_bn", 0, 0, {}]]]}, {"class_name": "GlobalAveragePooling2D", "config": {"name": "block5g_se_squeeze", "trainable": false, "dtype": "float32", "data_format": "channels_last", "keepdims": false}, "name": "block5g_se_squeeze", "inbound_nodes": [[["block5g_activation", 0, 0, {}]]]}, {"class_name": "Reshape", "config": {"name": "block5g_se_reshape", "trainable": false, "dtype": "float32", "target_shape": [1, 1, 960]}, "name": "block5g_se_reshape", "inbound_nodes": [[["block5g_se_squeeze", 0, 0, {}]]]}, {"class_name": "Conv2D", "config": {"name": "block5g_se_reduce", "trainable": false, "dtype": "float32", "filters": 40, "kernel_size": [1, 1], "strides": [1, 1], "padding": "same", "data_format": "channels_last", "dilation_rate": [1, 1], "groups": 1, "activation": "swish", "use_bias": true, "kernel_initializer": {"class_name": "VarianceScaling", "config": {"scale": 2.0, "mode": "fan_out", "distribution": "truncated_normal", "seed": null}}, "bias_initializer": {"class_name": "Zeros", "config": {}}, "kernel_regularizer": null, "bias_regularizer": null, "activity_regularizer": null, "kernel_constraint": null, "bias_constraint": null}, "name": "block5g_se_reduce", "inbound_nodes": [[["block5g_se_reshape", 0, 0, {}]]]}, {"class_name": "Conv2D", "config": {"name": "block5g_se_expand", "trainable": false, "dtype": "float32", "filters": 960, "kernel_size": [1, 1], "strides": [1, 1], "padding": "same", "data_format": "channels_last", "dilation_rate": [1, 1], "groups": 1, "activation": "sigmoid", "use_bias": true, "kernel_initializer": {"class_name": "VarianceScaling", "config": {"scale": 2.0, "mode": "fan_out", "distribution": "truncated_normal", "seed": null}}, "bias_initializer": {"class_name": "Zeros", "config": {}}, "kernel_regularizer": null, "bias_regularizer": null, "activity_regularizer": null, "kernel_constraint": null, "bias_constraint": null}, "name": "block5g_se_expand", "inbound_nodes": [[["block5g_se_reduce", 0, 0, {}]]]}, {"class_name": "Multiply", "config": {"name": "block5g_se_excite", "trainable": false, "dtype": "float32"}, "name": "block5g_se_excite", "inbound_nodes": [[["block5g_activation", 0, 0, {}], ["block5g_se_expand", 0, 0, {}]]]}, {"class_name": "Conv2D", "config": {"name": "block5g_project_conv", "trainable": false, "dtype": "float32", "filters": 160, "kernel_size": [1, 1], "strides": [1, 1], "padding": "same", "data_format": "channels_last", "dilation_rate": [1, 1], "groups": 1, "activation": "linear", "use_bias": false, "kernel_initializer": {"class_name": "VarianceScaling", "config": {"scale": 2.0, "mode": "fan_out", "distribution": "truncated_normal", "seed": null}}, "bias_initializer": {"class_name": "Zeros", "config": {}}, "kernel_regularizer": null, "bias_regularizer": null, "activity_regularizer": null, "kernel_constraint": null, "bias_constraint": null}, "name": "block5g_project_conv", "inbound_nodes": [[["block5g_se_excite", 0, 0, {}]]]}, {"class_name": "BatchNormalization", "config": {"name": "block5g_project_bn", "trainable": false, "dtype": "float32", "axis": [3], "momentum": 0.9, "epsilon": 0.001, "center": true, "scale": true, "beta_initializer": {"class_name": "Zeros", "config": {}}, "gamma_initializer": {"class_name": "Ones", "config": {}}, "moving_mean_initializer": {"class_name": "Zeros", "config": {}}, "moving_variance_initializer": {"class_name": "Ones", "config": {}}, "beta_regularizer": null, "gamma_regularizer": null, "beta_constraint": null, "gamma_constraint": null}, "name": "block5g_project_bn", "inbound_nodes": [[["block5g_project_conv", 0, 0, {}]]]}, {"class_name": "Add", "config": {"name": "block5g_add", "trainable": false, "dtype": "float32"}, "name": "block5g_add", "inbound_nodes": [[["block5g_project_bn", 0, 0, {}], ["block5f_add", 0, 0, {}]]]}, {"class_name": "Conv2D", "config": {"name": "block5h_expand_conv", "trainable": false, "dtype": "float32", "filters": 960, "kernel_size": [1, 1], "strides": [1, 1], "padding": "same", "data_format": "channels_last", "dilation_rate": [1, 1], "groups": 1, "activation": "linear", "use_bias": false, "kernel_initializer": {"class_name": "VarianceScaling", "config": {"scale": 2.0, "mode": "fan_out", "distribution": "truncated_normal", "seed": null}}, "bias_initializer": {"class_name": "Zeros", "config": {}}, "kernel_regularizer": null, "bias_regularizer": null, "activity_regularizer": null, "kernel_constraint": null, "bias_constraint": null}, "name": "block5h_expand_conv", "inbound_nodes": [[["block5g_add", 0, 0, {}]]]}, {"class_name": "BatchNormalization", "config": {"name": "block5h_expand_bn", "trainable": false, "dtype": "float32", "axis": [3], "momentum": 0.9, "epsilon": 0.001, "center": true, "scale": true, "beta_initializer": {"class_name": "Zeros", "config": {}}, "gamma_initializer": {"class_name": "Ones", "config": {}}, "moving_mean_initializer": {"class_name": "Zeros", "config": {}}, "moving_variance_initializer": {"class_name": "Ones", "config": {}}, "beta_regularizer": null, "gamma_regularizer": null, "beta_constraint": null, "gamma_constraint": null}, "name": "block5h_expand_bn", "inbound_nodes": [[["block5h_expand_conv", 0, 0, {}]]]}, {"class_name": "Activation", "config": {"name": "block5h_expand_activation", "trainable": false, "dtype": "float32", "activation": "swish"}, "name": "block5h_expand_activation", "inbound_nodes": [[["block5h_expand_bn", 0, 0, {}]]]}, {"class_name": "DepthwiseConv2D", "config": {"name": "block5h_dwconv2", "trainable": false, "dtype": "float32", "kernel_size": [3, 3], "strides": [1, 1], "padding": "same", "data_format": "channels_last", "dilation_rate": [1, 1], "groups": 1, "activation": "linear", "use_bias": false, "bias_initializer": {"class_name": "Zeros", "config": {}}, "bias_regularizer": null, "activity_regularizer": null, "bias_constraint": null, "depth_multiplier": 1, "depthwise_initializer": {"class_name": "VarianceScaling", "config": {"scale": 2.0, "mode": "fan_out", "distribution": "truncated_normal", "seed": null}}, "depthwise_regularizer": null, "depthwise_constraint": null}, "name": "block5h_dwconv2", "inbound_nodes": [[["block5h_expand_activation", 0, 0, {}]]]}, {"class_name": "BatchNormalization", "config": {"name": "block5h_bn", "trainable": false, "dtype": "float32", "axis": [3], "momentum": 0.9, "epsilon": 0.001, "center": true, "scale": true, "beta_initializer": {"class_name": "Zeros", "config": {}}, "gamma_initializer": {"class_name": "Ones", "config": {}}, "moving_mean_initializer": {"class_name": "Zeros", "config": {}}, "moving_variance_initializer": {"class_name": "Ones", "config": {}}, "beta_regularizer": null, "gamma_regularizer": null, "beta_constraint": null, "gamma_constraint": null}, "name": "block5h_bn", "inbound_nodes": [[["block5h_dwconv2", 0, 0, {}]]]}, {"class_name": "Activation", "config": {"name": "block5h_activation", "trainable": false, "dtype": "float32", "activation": "swish"}, "name": "block5h_activation", "inbound_nodes": [[["block5h_bn", 0, 0, {}]]]}, {"class_name": "GlobalAveragePooling2D", "config": {"name": "block5h_se_squeeze", "trainable": false, "dtype": "float32", "data_format": "channels_last", "keepdims": false}, "name": "block5h_se_squeeze", "inbound_nodes": [[["block5h_activation", 0, 0, {}]]]}, {"class_name": "Reshape", "config": {"name": "block5h_se_reshape", "trainable": false, "dtype": "float32", "target_shape": [1, 1, 960]}, "name": "block5h_se_reshape", "inbound_nodes": [[["block5h_se_squeeze", 0, 0, {}]]]}, {"class_name": "Conv2D", "config": {"name": "block5h_se_reduce", "trainable": false, "dtype": "float32", "filters": 40, "kernel_size": [1, 1], "strides": [1, 1], "padding": "same", "data_format": "channels_last", "dilation_rate": [1, 1], "groups": 1, "activation": "swish", "use_bias": true, "kernel_initializer": {"class_name": "VarianceScaling", "config": {"scale": 2.0, "mode": "fan_out", "distribution": "truncated_normal", "seed": null}}, "bias_initializer": {"class_name": "Zeros", "config": {}}, "kernel_regularizer": null, "bias_regularizer": null, "activity_regularizer": null, "kernel_constraint": null, "bias_constraint": null}, "name": "block5h_se_reduce", "inbound_nodes": [[["block5h_se_reshape", 0, 0, {}]]]}, {"class_name": "Conv2D", "config": {"name": "block5h_se_expand", "trainable": false, "dtype": "float32", "filters": 960, "kernel_size": [1, 1], "strides": [1, 1], "padding": "same", "data_format": "channels_last", "dilation_rate": [1, 1], "groups": 1, "activation": "sigmoid", "use_bias": true, "kernel_initializer": {"class_name": "VarianceScaling", "config": {"scale": 2.0, "mode": "fan_out", "distribution": "truncated_normal", "seed": null}}, "bias_initializer": {"class_name": "Zeros", "config": {}}, "kernel_regularizer": null, "bias_regularizer": null, "activity_regularizer": null, "kernel_constraint": null, "bias_constraint": null}, "name": "block5h_se_expand", "inbound_nodes": [[["block5h_se_reduce", 0, 0, {}]]]}, {"class_name": "Multiply", "config": {"name": "block5h_se_excite", "trainable": false, "dtype": "float32"}, "name": "block5h_se_excite", "inbound_nodes": [[["block5h_activation", 0, 0, {}], ["block5h_se_expand", 0, 0, {}]]]}, {"class_name": "Conv2D", "config": {"name": "block5h_project_conv", "trainable": false, "dtype": "float32", "filters": 160, "kernel_size": [1, 1], "strides": [1, 1], "padding": "same", "data_format": "channels_last", "dilation_rate": [1, 1], "groups": 1, "activation": "linear", "use_bias": false, "kernel_initializer": {"class_name": "VarianceScaling", "config": {"scale": 2.0, "mode": "fan_out", "distribution": "truncated_normal", "seed": null}}, "bias_initializer": {"class_name": "Zeros", "config": {}}, "kernel_regularizer": null, "bias_regularizer": null, "activity_regularizer": null, "kernel_constraint": null, "bias_constraint": null}, "name": "block5h_project_conv", "inbound_nodes": [[["block5h_se_excite", 0, 0, {}]]]}, {"class_name": "BatchNormalization", "config": {"name": "block5h_project_bn", "trainable": false, "dtype": "float32", "axis": [3], "momentum": 0.9, "epsilon": 0.001, "center": true, "scale": true, "beta_initializer": {"class_name": "Zeros", "config": {}}, "gamma_initializer": {"class_name": "Ones", "config": {}}, "moving_mean_initializer": {"class_name": "Zeros", "config": {}}, "moving_variance_initializer": {"class_name": "Ones", "config": {}}, "beta_regularizer": null, "gamma_regularizer": null, "beta_constraint": null, "gamma_constraint": null}, "name": "block5h_project_bn", "inbound_nodes": [[["block5h_project_conv", 0, 0, {}]]]}, {"class_name": "Add", "config": {"name": "block5h_add", "trainable": false, "dtype": "float32"}, "name": "block5h_add", "inbound_nodes": [[["block5h_project_bn", 0, 0, {}], ["block5g_add", 0, 0, {}]]]}, {"class_name": "Conv2D", "config": {"name": "block5i_expand_conv", "trainable": false, "dtype": "float32", "filters": 960, "kernel_size": [1, 1], "strides": [1, 1], "padding": "same", "data_format": "channels_last", "dilation_rate": [1, 1], "groups": 1, "activation": "linear", "use_bias": false, "kernel_initializer": {"class_name": "VarianceScaling", "config": {"scale": 2.0, "mode": "fan_out", "distribution": "truncated_normal", "seed": null}}, "bias_initializer": {"class_name": "Zeros", "config": {}}, "kernel_regularizer": null, "bias_regularizer": null, "activity_regularizer": null, "kernel_constraint": null, "bias_constraint": null}, "name": "block5i_expand_conv", "inbound_nodes": [[["block5h_add", 0, 0, {}]]]}, {"class_name": "BatchNormalization", "config": {"name": "block5i_expand_bn", "trainable": false, "dtype": "float32", "axis": [3], "momentum": 0.9, "epsilon": 0.001, "center": true, "scale": true, "beta_initializer": {"class_name": "Zeros", "config": {}}, "gamma_initializer": {"class_name": "Ones", "config": {}}, "moving_mean_initializer": {"class_name": "Zeros", "config": {}}, "moving_variance_initializer": {"class_name": "Ones", "config": {}}, "beta_regularizer": null, "gamma_regularizer": null, "beta_constraint": null, "gamma_constraint": null}, "name": "block5i_expand_bn", "inbound_nodes": [[["block5i_expand_conv", 0, 0, {}]]]}, {"class_name": "Activation", "config": {"name": "block5i_expand_activation", "trainable": false, "dtype": "float32", "activation": "swish"}, "name": "block5i_expand_activation", "inbound_nodes": [[["block5i_expand_bn", 0, 0, {}]]]}, {"class_name": "DepthwiseConv2D", "config": {"name": "block5i_dwconv2", "trainable": false, "dtype": "float32", "kernel_size": [3, 3], "strides": [1, 1], "padding": "same", "data_format": "channels_last", "dilation_rate": [1, 1], "groups": 1, "activation": "linear", "use_bias": false, "bias_initializer": {"class_name": "Zeros", "config": {}}, "bias_regularizer": null, "activity_regularizer": null, "bias_constraint": null, "depth_multiplier": 1, "depthwise_initializer": {"class_name": "VarianceScaling", "config": {"scale": 2.0, "mode": "fan_out", "distribution": "truncated_normal", "seed": null}}, "depthwise_regularizer": null, "depthwise_constraint": null}, "name": "block5i_dwconv2", "inbound_nodes": [[["block5i_expand_activation", 0, 0, {}]]]}, {"class_name": "BatchNormalization", "config": {"name": "block5i_bn", "trainable": false, "dtype": "float32", "axis": [3], "momentum": 0.9, "epsilon": 0.001, "center": true, "scale": true, "beta_initializer": {"class_name": "Zeros", "config": {}}, "gamma_initializer": {"class_name": "Ones", "config": {}}, "moving_mean_initializer": {"class_name": "Zeros", "config": {}}, "moving_variance_initializer": {"class_name": "Ones", "config": {}}, "beta_regularizer": null, "gamma_regularizer": null, "beta_constraint": null, "gamma_constraint": null}, "name": "block5i_bn", "inbound_nodes": [[["block5i_dwconv2", 0, 0, {}]]]}, {"class_name": "Activation", "config": {"name": "block5i_activation", "trainable": false, "dtype": "float32", "activation": "swish"}, "name": "block5i_activation", "inbound_nodes": [[["block5i_bn", 0, 0, {}]]]}, {"class_name": "GlobalAveragePooling2D", "config": {"name": "block5i_se_squeeze", "trainable": false, "dtype": "float32", "data_format": "channels_last", "keepdims": false}, "name": "block5i_se_squeeze", "inbound_nodes": [[["block5i_activation", 0, 0, {}]]]}, {"class_name": "Reshape", "config": {"name": "block5i_se_reshape", "trainable": false, "dtype": "float32", "target_shape": [1, 1, 960]}, "name": "block5i_se_reshape", "inbound_nodes": [[["block5i_se_squeeze", 0, 0, {}]]]}, {"class_name": "Conv2D", "config": {"name": "block5i_se_reduce", "trainable": false, "dtype": "float32", "filters": 40, "kernel_size": [1, 1], "strides": [1, 1], "padding": "same", "data_format": "channels_last", "dilation_rate": [1, 1], "groups": 1, "activation": "swish", "use_bias": true, "kernel_initializer": {"class_name": "VarianceScaling", "config": {"scale": 2.0, "mode": "fan_out", "distribution": "truncated_normal", "seed": null}}, "bias_initializer": {"class_name": "Zeros", "config": {}}, "kernel_regularizer": null, "bias_regularizer": null, "activity_regularizer": null, "kernel_constraint": null, "bias_constraint": null}, "name": "block5i_se_reduce", "inbound_nodes": [[["block5i_se_reshape", 0, 0, {}]]]}, {"class_name": "Conv2D", "config": {"name": "block5i_se_expand", "trainable": false, "dtype": "float32", "filters": 960, "kernel_size": [1, 1], "strides": [1, 1], "padding": "same", "data_format": "channels_last", "dilation_rate": [1, 1], "groups": 1, "activation": "sigmoid", "use_bias": true, "kernel_initializer": {"class_name": "VarianceScaling", "config": {"scale": 2.0, "mode": "fan_out", "distribution": "truncated_normal", "seed": null}}, "bias_initializer": {"class_name": "Zeros", "config": {}}, "kernel_regularizer": null, "bias_regularizer": null, "activity_regularizer": null, "kernel_constraint": null, "bias_constraint": null}, "name": "block5i_se_expand", "inbound_nodes": [[["block5i_se_reduce", 0, 0, {}]]]}, {"class_name": "Multiply", "config": {"name": "block5i_se_excite", "trainable": false, "dtype": "float32"}, "name": "block5i_se_excite", "inbound_nodes": [[["block5i_activation", 0, 0, {}], ["block5i_se_expand", 0, 0, {}]]]}, {"class_name": "Conv2D", "config": {"name": "block5i_project_conv", "trainable": false, "dtype": "float32", "filters": 160, "kernel_size": [1, 1], "strides": [1, 1], "padding": "same", "data_format": "channels_last", "dilation_rate": [1, 1], "groups": 1, "activation": "linear", "use_bias": false, "kernel_initializer": {"class_name": "VarianceScaling", "config": {"scale": 2.0, "mode": "fan_out", "distribution": "truncated_normal", "seed": null}}, "bias_initializer": {"class_name": "Zeros", "config": {}}, "kernel_regularizer": null, "bias_regularizer": null, "activity_regularizer": null, "kernel_constraint": null, "bias_constraint": null}, "name": "block5i_project_conv", "inbound_nodes": [[["block5i_se_excite", 0, 0, {}]]]}, {"class_name": "BatchNormalization", "config": {"name": "block5i_project_bn", "trainable": false, "dtype": "float32", "axis": [3], "momentum": 0.9, "epsilon": 0.001, "center": true, "scale": true, "beta_initializer": {"class_name": "Zeros", "config": {}}, "gamma_initializer": {"class_name": "Ones", "config": {}}, "moving_mean_initializer": {"class_name": "Zeros", "config": {}}, "moving_variance_initializer": {"class_name": "Ones", "config": {}}, "beta_regularizer": null, "gamma_regularizer": null, "beta_constraint": null, "gamma_constraint": null}, "name": "block5i_project_bn", "inbound_nodes": [[["block5i_project_conv", 0, 0, {}]]]}, {"class_name": "Add", "config": {"name": "block5i_add", "trainable": false, "dtype": "float32"}, "name": "block5i_add", "inbound_nodes": [[["block5i_project_bn", 0, 0, {}], ["block5h_add", 0, 0, {}]]]}, {"class_name": "Conv2D", "config": {"name": "block6a_expand_conv", "trainable": false, "dtype": "float32", "filters": 960, "kernel_size": [1, 1], "strides": [1, 1], "padding": "same", "data_format": "channels_last", "dilation_rate": [1, 1], "groups": 1, "activation": "linear", "use_bias": false, "kernel_initializer": {"class_name": "VarianceScaling", "config": {"scale": 2.0, "mode": "fan_out", "distribution": "truncated_normal", "seed": null}}, "bias_initializer": {"class_name": "Zeros", "config": {}}, "kernel_regularizer": null, "bias_regularizer": null, "activity_regularizer": null, "kernel_constraint": null, "bias_constraint": null}, "name": "block6a_expand_conv", "inbound_nodes": [[["block5i_add", 0, 0, {}]]]}, {"class_name": "BatchNormalization", "config": {"name": "block6a_expand_bn", "trainable": false, "dtype": "float32", "axis": [3], "momentum": 0.9, "epsilon": 0.001, "center": true, "scale": true, "beta_initializer": {"class_name": "Zeros", "config": {}}, "gamma_initializer": {"class_name": "Ones", "config": {}}, "moving_mean_initializer": {"class_name": "Zeros", "config": {}}, "moving_variance_initializer": {"class_name": "Ones", "config": {}}, "beta_regularizer": null, "gamma_regularizer": null, "beta_constraint": null, "gamma_constraint": null}, "name": "block6a_expand_bn", "inbound_nodes": [[["block6a_expand_conv", 0, 0, {}]]]}, {"class_name": "Activation", "config": {"name": "block6a_expand_activation", "trainable": false, "dtype": "float32", "activation": "swish"}, "name": "block6a_expand_activation", "inbound_nodes": [[["block6a_expand_bn", 0, 0, {}]]]}, {"class_name": "DepthwiseConv2D", "config": {"name": "block6a_dwconv2", "trainable": false, "dtype": "float32", "kernel_size": [3, 3], "strides": [2, 2], "padding": "same", "data_format": "channels_last", "dilation_rate": [1, 1], "groups": 1, "activation": "linear", "use_bias": false, "bias_initializer": {"class_name": "Zeros", "config": {}}, "bias_regularizer": null, "activity_regularizer": null, "bias_constraint": null, "depth_multiplier": 1, "depthwise_initializer": {"class_name": "VarianceScaling", "config": {"scale": 2.0, "mode": "fan_out", "distribution": "truncated_normal", "seed": null}}, "depthwise_regularizer": null, "depthwise_constraint": null}, "name": "block6a_dwconv2", "inbound_nodes": [[["block6a_expand_activation", 0, 0, {}]]]}, {"class_name": "BatchNormalization", "config": {"name": "block6a_bn", "trainable": false, "dtype": "float32", "axis": [3], "momentum": 0.9, "epsilon": 0.001, "center": true, "scale": true, "beta_initializer": {"class_name": "Zeros", "config": {}}, "gamma_initializer": {"class_name": "Ones", "config": {}}, "moving_mean_initializer": {"class_name": "Zeros", "config": {}}, "moving_variance_initializer": {"class_name": "Ones", "config": {}}, "beta_regularizer": null, "gamma_regularizer": null, "beta_constraint": null, "gamma_constraint": null}, "name": "block6a_bn", "inbound_nodes": [[["block6a_dwconv2", 0, 0, {}]]]}, {"class_name": "Activation", "config": {"name": "block6a_activation", "trainable": false, "dtype": "float32", "activation": "swish"}, "name": "block6a_activation", "inbound_nodes": [[["block6a_bn", 0, 0, {}]]]}, {"class_name": "GlobalAveragePooling2D", "config": {"name": "block6a_se_squeeze", "trainable": false, "dtype": "float32", "data_format": "channels_last", "keepdims": false}, "name": "block6a_se_squeeze", "inbound_nodes": [[["block6a_activation", 0, 0, {}]]]}, {"class_name": "Reshape", "config": {"name": "block6a_se_reshape", "trainable": false, "dtype": "float32", "target_shape": [1, 1, 960]}, "name": "block6a_se_reshape", "inbound_nodes": [[["block6a_se_squeeze", 0, 0, {}]]]}, {"class_name": "Conv2D", "config": {"name": "block6a_se_reduce", "trainable": false, "dtype": "float32", "filters": 40, "kernel_size": [1, 1], "strides": [1, 1], "padding": "same", "data_format": "channels_last", "dilation_rate": [1, 1], "groups": 1, "activation": "swish", "use_bias": true, "kernel_initializer": {"class_name": "VarianceScaling", "config": {"scale": 2.0, "mode": "fan_out", "distribution": "truncated_normal", "seed": null}}, "bias_initializer": {"class_name": "Zeros", "config": {}}, "kernel_regularizer": null, "bias_regularizer": null, "activity_regularizer": null, "kernel_constraint": null, "bias_constraint": null}, "name": "block6a_se_reduce", "inbound_nodes": [[["block6a_se_reshape", 0, 0, {}]]]}, {"class_name": "Conv2D", "config": {"name": "block6a_se_expand", "trainable": false, "dtype": "float32", "filters": 960, "kernel_size": [1, 1], "strides": [1, 1], "padding": "same", "data_format": "channels_last", "dilation_rate": [1, 1], "groups": 1, "activation": "sigmoid", "use_bias": true, "kernel_initializer": {"class_name": "VarianceScaling", "config": {"scale": 2.0, "mode": "fan_out", "distribution": "truncated_normal", "seed": null}}, "bias_initializer": {"class_name": "Zeros", "config": {}}, "kernel_regularizer": null, "bias_regularizer": null, "activity_regularizer": null, "kernel_constraint": null, "bias_constraint": null}, "name": "block6a_se_expand", "inbound_nodes": [[["block6a_se_reduce", 0, 0, {}]]]}, {"class_name": "Multiply", "config": {"name": "block6a_se_excite", "trainable": false, "dtype": "float32"}, "name": "block6a_se_excite", "inbound_nodes": [[["block6a_activation", 0, 0, {}], ["block6a_se_expand", 0, 0, {}]]]}, {"class_name": "Conv2D", "config": {"name": "block6a_project_conv", "trainable": false, "dtype": "float32", "filters": 256, "kernel_size": [1, 1], "strides": [1, 1], "padding": "same", "data_format": "channels_last", "dilation_rate": [1, 1], "groups": 1, "activation": "linear", "use_bias": false, "kernel_initializer": {"class_name": "VarianceScaling", "config": {"scale": 2.0, "mode": "fan_out", "distribution": "truncated_normal", "seed": null}}, "bias_initializer": {"class_name": "Zeros", "config": {}}, "kernel_regularizer": null, "bias_regularizer": null, "activity_regularizer": null, "kernel_constraint": null, "bias_constraint": null}, "name": "block6a_project_conv", "inbound_nodes": [[["block6a_se_excite", 0, 0, {}]]]}, {"class_name": "BatchNormalization", "config": {"name": "block6a_project_bn", "trainable": false, "dtype": "float32", "axis": [3], "momentum": 0.9, "epsilon": 0.001, "center": true, "scale": true, "beta_initializer": {"class_name": "Zeros", "config": {}}, "gamma_initializer": {"class_name": "Ones", "config": {}}, "moving_mean_initializer": {"class_name": "Zeros", "config": {}}, "moving_variance_initializer": {"class_name": "Ones", "config": {}}, "beta_regularizer": null, "gamma_regularizer": null, "beta_constraint": null, "gamma_constraint": null}, "name": "block6a_project_bn", "inbound_nodes": [[["block6a_project_conv", 0, 0, {}]]]}, {"class_name": "Conv2D", "config": {"name": "block6b_expand_conv", "trainable": false, "dtype": "float32", "filters": 1536, "kernel_size": [1, 1], "strides": [1, 1], "padding": "same", "data_format": "channels_last", "dilation_rate": [1, 1], "groups": 1, "activation": "linear", "use_bias": false, "kernel_initializer": {"class_name": "VarianceScaling", "config": {"scale": 2.0, "mode": "fan_out", "distribution": "truncated_normal", "seed": null}}, "bias_initializer": {"class_name": "Zeros", "config": {}}, "kernel_regularizer": null, "bias_regularizer": null, "activity_regularizer": null, "kernel_constraint": null, "bias_constraint": null}, "name": "block6b_expand_conv", "inbound_nodes": [[["block6a_project_bn", 0, 0, {}]]]}, {"class_name": "BatchNormalization", "config": {"name": "block6b_expand_bn", "trainable": false, "dtype": "float32", "axis": [3], "momentum": 0.9, "epsilon": 0.001, "center": true, "scale": true, "beta_initializer": {"class_name": "Zeros", "config": {}}, "gamma_initializer": {"class_name": "Ones", "config": {}}, "moving_mean_initializer": {"class_name": "Zeros", "config": {}}, "moving_variance_initializer": {"class_name": "Ones", "config": {}}, "beta_regularizer": null, "gamma_regularizer": null, "beta_constraint": null, "gamma_constraint": null}, "name": "block6b_expand_bn", "inbound_nodes": [[["block6b_expand_conv", 0, 0, {}]]]}, {"class_name": "Activation", "config": {"name": "block6b_expand_activation", "trainable": false, "dtype": "float32", "activation": "swish"}, "name": "block6b_expand_activation", "inbound_nodes": [[["block6b_expand_bn", 0, 0, {}]]]}, {"class_name": "DepthwiseConv2D", "config": {"name": "block6b_dwconv2", "trainable": false, "dtype": "float32", "kernel_size": [3, 3], "strides": [1, 1], "padding": "same", "data_format": "channels_last", "dilation_rate": [1, 1], "groups": 1, "activation": "linear", "use_bias": false, "bias_initializer": {"class_name": "Zeros", "config": {}}, "bias_regularizer": null, "activity_regularizer": null, "bias_constraint": null, "depth_multiplier": 1, "depthwise_initializer": {"class_name": "VarianceScaling", "config": {"scale": 2.0, "mode": "fan_out", "distribution": "truncated_normal", "seed": null}}, "depthwise_regularizer": null, "depthwise_constraint": null}, "name": "block6b_dwconv2", "inbound_nodes": [[["block6b_expand_activation", 0, 0, {}]]]}, {"class_name": "BatchNormalization", "config": {"name": "block6b_bn", "trainable": false, "dtype": "float32", "axis": [3], "momentum": 0.9, "epsilon": 0.001, "center": true, "scale": true, "beta_initializer": {"class_name": "Zeros", "config": {}}, "gamma_initializer": {"class_name": "Ones", "config": {}}, "moving_mean_initializer": {"class_name": "Zeros", "config": {}}, "moving_variance_initializer": {"class_name": "Ones", "config": {}}, "beta_regularizer": null, "gamma_regularizer": null, "beta_constraint": null, "gamma_constraint": null}, "name": "block6b_bn", "inbound_nodes": [[["block6b_dwconv2", 0, 0, {}]]]}, {"class_name": "Activation", "config": {"name": "block6b_activation", "trainable": false, "dtype": "float32", "activation": "swish"}, "name": "block6b_activation", "inbound_nodes": [[["block6b_bn", 0, 0, {}]]]}, {"class_name": "GlobalAveragePooling2D", "config": {"name": "block6b_se_squeeze", "trainable": false, "dtype": "float32", "data_format": "channels_last", "keepdims": false}, "name": "block6b_se_squeeze", "inbound_nodes": [[["block6b_activation", 0, 0, {}]]]}, {"class_name": "Reshape", "config": {"name": "block6b_se_reshape", "trainable": false, "dtype": "float32", "target_shape": [1, 1, 1536]}, "name": "block6b_se_reshape", "inbound_nodes": [[["block6b_se_squeeze", 0, 0, {}]]]}, {"class_name": "Conv2D", "config": {"name": "block6b_se_reduce", "trainable": false, "dtype": "float32", "filters": 64, "kernel_size": [1, 1], "strides": [1, 1], "padding": "same", "data_format": "channels_last", "dilation_rate": [1, 1], "groups": 1, "activation": "swish", "use_bias": true, "kernel_initializer": {"class_name": "VarianceScaling", "config": {"scale": 2.0, "mode": "fan_out", "distribution": "truncated_normal", "seed": null}}, "bias_initializer": {"class_name": "Zeros", "config": {}}, "kernel_regularizer": null, "bias_regularizer": null, "activity_regularizer": null, "kernel_constraint": null, "bias_constraint": null}, "name": "block6b_se_reduce", "inbound_nodes": [[["block6b_se_reshape", 0, 0, {}]]]}, {"class_name": "Conv2D", "config": {"name": "block6b_se_expand", "trainable": false, "dtype": "float32", "filters": 1536, "kernel_size": [1, 1], "strides": [1, 1], "padding": "same", "data_format": "channels_last", "dilation_rate": [1, 1], "groups": 1, "activation": "sigmoid", "use_bias": true, "kernel_initializer": {"class_name": "VarianceScaling", "config": {"scale": 2.0, "mode": "fan_out", "distribution": "truncated_normal", "seed": null}}, "bias_initializer": {"class_name": "Zeros", "config": {}}, "kernel_regularizer": null, "bias_regularizer": null, "activity_regularizer": null, "kernel_constraint": null, "bias_constraint": null}, "name": "block6b_se_expand", "inbound_nodes": [[["block6b_se_reduce", 0, 0, {}]]]}, {"class_name": "Multiply", "config": {"name": "block6b_se_excite", "trainable": false, "dtype": "float32"}, "name": "block6b_se_excite", "inbound_nodes": [[["block6b_activation", 0, 0, {}], ["block6b_se_expand", 0, 0, {}]]]}, {"class_name": "Conv2D", "config": {"name": "block6b_project_conv", "trainable": false, "dtype": "float32", "filters": 256, "kernel_size": [1, 1], "strides": [1, 1], "padding": "same", "data_format": "channels_last", "dilation_rate": [1, 1], "groups": 1, "activation": "linear", "use_bias": false, "kernel_initializer": {"class_name": "VarianceScaling", "config": {"scale": 2.0, "mode": "fan_out", "distribution": "truncated_normal", "seed": null}}, "bias_initializer": {"class_name": "Zeros", "config": {}}, "kernel_regularizer": null, "bias_regularizer": null, "activity_regularizer": null, "kernel_constraint": null, "bias_constraint": null}, "name": "block6b_project_conv", "inbound_nodes": [[["block6b_se_excite", 0, 0, {}]]]}, {"class_name": "BatchNormalization", "config": {"name": "block6b_project_bn", "trainable": false, "dtype": "float32", "axis": [3], "momentum": 0.9, "epsilon": 0.001, "center": true, "scale": true, "beta_initializer": {"class_name": "Zeros", "config": {}}, "gamma_initializer": {"class_name": "Ones", "config": {}}, "moving_mean_initializer": {"class_name": "Zeros", "config": {}}, "moving_variance_initializer": {"class_name": "Ones", "config": {}}, "beta_regularizer": null, "gamma_regularizer": null, "beta_constraint": null, "gamma_constraint": null}, "name": "block6b_project_bn", "inbound_nodes": [[["block6b_project_conv", 0, 0, {}]]]}, {"class_name": "Add", "config": {"name": "block6b_add", "trainable": false, "dtype": "float32"}, "name": "block6b_add", "inbound_nodes": [[["block6b_project_bn", 0, 0, {}], ["block6a_project_bn", 0, 0, {}]]]}, {"class_name": "Conv2D", "config": {"name": "block6c_expand_conv", "trainable": false, "dtype": "float32", "filters": 1536, "kernel_size": [1, 1], "strides": [1, 1], "padding": "same", "data_format": "channels_last", "dilation_rate": [1, 1], "groups": 1, "activation": "linear", "use_bias": false, "kernel_initializer": {"class_name": "VarianceScaling", "config": {"scale": 2.0, "mode": "fan_out", "distribution": "truncated_normal", "seed": null}}, "bias_initializer": {"class_name": "Zeros", "config": {}}, "kernel_regularizer": null, "bias_regularizer": null, "activity_regularizer": null, "kernel_constraint": null, "bias_constraint": null}, "name": "block6c_expand_conv", "inbound_nodes": [[["block6b_add", 0, 0, {}]]]}, {"class_name": "BatchNormalization", "config": {"name": "block6c_expand_bn", "trainable": false, "dtype": "float32", "axis": [3], "momentum": 0.9, "epsilon": 0.001, "center": true, "scale": true, "beta_initializer": {"class_name": "Zeros", "config": {}}, "gamma_initializer": {"class_name": "Ones", "config": {}}, "moving_mean_initializer": {"class_name": "Zeros", "config": {}}, "moving_variance_initializer": {"class_name": "Ones", "config": {}}, "beta_regularizer": null, "gamma_regularizer": null, "beta_constraint": null, "gamma_constraint": null}, "name": "block6c_expand_bn", "inbound_nodes": [[["block6c_expand_conv", 0, 0, {}]]]}, {"class_name": "Activation", "config": {"name": "block6c_expand_activation", "trainable": false, "dtype": "float32", "activation": "swish"}, "name": "block6c_expand_activation", "inbound_nodes": [[["block6c_expand_bn", 0, 0, {}]]]}, {"class_name": "DepthwiseConv2D", "config": {"name": "block6c_dwconv2", "trainable": false, "dtype": "float32", "kernel_size": [3, 3], "strides": [1, 1], "padding": "same", "data_format": "channels_last", "d…
", "shape": [192], "dtype": "float32"}, {"name": "block2b_expand_bn/moving_variance", "shape": [192], "dtype": "float32"}, {"name": "block2b_project_conv/kernel", "shape": [1, 1, 192, 48], "dtype": "float32"}, {"name": "block2b_project_bn/gamma", "shape": [48], "dtype": "float32"}, {"name": "block2b_project_bn/beta", "shape": [48], "dtype": "float32"}, {"name": "block2b_project_bn/moving_mean", "shape": [48], "dtype": "float32"}, {"name": "block2b_project_bn/moving_variance", "shape": [48], "dtype": "float32"}, {"name": "block2c_expand_conv/kernel", "shape": [3, 3, 48, 192], "dtype": "float32"}, {"name": "block2c_expand_bn/gamma", "shape": [192], "dtype": "float32"}, {"name": "block2c_expand_bn/beta", "shape": [192], "dtype": "float32"}, {"name": "block2c_expand_bn/moving_mean", "shape": [192], "dtype": "float32"}, {"name": "block2c_expand_bn/moving_variance", "shape": [192], "dtype": "float32"}, {"name": "block2c_project_conv/kernel", "shape": [1, 1, 192, 48], "dtype": "float32"}, {"name": "block2c_project_bn/gamma", "shape": [48], "dtype": "float32"}, {"name": "block2c_project_bn/beta", "shape": [48], "dtype": "float32"}, {"name": "block2c_project_bn/moving_mean", "shape": [48], "dtype": "float32"}, {"name": "block2c_project_bn/moving_variance", "shape": [48], "dtype": "float32"}, {"name": "block2d_expand_conv/kernel", "shape": [3, 3, 48, 192], "dtype": "float32"}, {"name": "block2d_expand_bn/gamma", "shape": [192], "dtype": "float32"}, {"name": "block2d_expand_bn/beta", "shape": [192], "dtype": "float32"}, {"name": "block2d_expand_bn/moving_mean", "shape": [192], "dtype": "float32"}, {"name": "block2d_expand_bn/moving_variance", "shape": [192], "dtype": "float32"}, {"name": "block2d_project_conv/kernel", "shape": [1, 1, 192, 48], "dtype": "float32"}, {"name": "block2d_project_bn/gamma", "shape": [48], "dtype": "float32"}, {"name": "block2d_project_bn/beta", "shape": [48], "dtype": "float32"}, {"name": "block2d_project_bn/moving_mean", "shape": [48], "dtype": "float32"}, {"name": "block2d_project_bn/moving_variance", "shape": [48], "dtype": "float32"}, {"name": "block3a_expand_conv/kernel", "shape": [3, 3, 48, 192], "dtype": "float32"}, {"name": "block3a_expand_bn/gamma", "shape": [192], "dtype": "float32"}, {"name": "block3a_expand_bn/beta", "shape": [192], "dtype": "float32"}, {"name": "block3a_expand_bn/moving_mean", "shape": [192], "dtype": "float32"}, {"name": "block3a_expand_bn/moving_variance", "shape": [192], "dtype": "float32"}, {"name": "block3a_project_conv/kernel", "shape": [1, 1, 192, 64], "dtype": "float32"}, {"name": "block3a_project_bn/gamma", "shape": [64], "dtype": "float32"}, {"name": "block3a_project_bn/beta", "shape": [64], "dtype": "float32"}, {"name": "block3a_project_bn/moving_mean", "shape": [64], "dtype": "float32"}, {"name": "block3a_project_bn/moving_variance", "shape": [64], "dtype": "float32"}, {"name": "block3b_expand_conv/kernel", "shape": [3, 3, 64, 256], "dtype": "float32"}, {"name": "block3b_expand_bn/gamma", "shape": [256], "dtype": "float32"}, {"name": "block3b_expand_bn/beta", "shape": [256], "dtype": "float32"}, {"name": "block3b_expand_bn/moving_mean", "shape": [256], "dtype": "float32"}, {"name": "block3b_expand_bn/moving_variance", "shape": [256], "dtype": "float32"}, {"name": "block3b_project_conv/kernel", "shape": [1, 1, 256, 64], "dtype": "float32"}, {"name": "block3b_project_bn/gamma", "shape": [64], "dtype": "float32"}, {"name": "block3b_project_bn/beta", "shape": [64], "dtype": "float32"}, {"name": "block3b_project_bn/moving_mean", "shape": [64], "dtype": "float32"}, {"name": "block3b_project_bn/moving_variance", "shape": [64], "dtype": "float32"}, {"name": "block3c_expand_conv/kernel", "shape": [3, 3, 64, 256], "dtype": "float32"}, {"name": "block3c_expand_bn/gamma", "shape": [256], "dtype": "float32"}, {"name": "block3c_expand_bn/beta", "shape": [256], "dtype": "float32"}, {"name": "block3c_expand_bn/moving_mean", "shape": [256], "dtype": "float32"}, {"name": "block3c_expand_bn/moving_variance", "shape": [256], "dtype": "float32"}, {"name": "block3c_project_conv/kernel", "shape": [1, 1, 256, 64], "dtype": "float32"}, {"name": "block3c_project_bn/gamma", "shape": [64], "dtype": "float32"}, {"name": "block3c_project_bn/beta", "shape": [64], "dtype": "float32"}, {"name": "block3c_project_bn/moving_mean", "shape": [64], "dtype": "float32"}, {"name": "block3c_project_bn/moving_variance", "shape": [64], "dtype": "float32"}, {"name": "block3d_expand_conv/kernel", "shape": [3, 3, 64, 256], "dtype": "float32"}, {"name": "block3d_expand_bn/gamma", "shape": [256], "dtype": "float32"}, {"name": "block3d_expand_bn/beta", "shape": [256], "dtype": "float32"}, {"name": "block3d_expand_bn/moving_mean", "shape": [256], "dtype": "float32"}, {"name": "block3d_expand_bn/moving_variance", "shape": [256], "dtype": "float32"}, {"name": "block3d_project_conv/kernel", "shape": [1, 1, 256, 64], "dtype": "float32"}, {"name": "block3d_project_bn/gamma", "shape": [64], "dtype": "float32"}, {"name": "block3d_project_bn/beta", "shape": [64], "dtype": "float32"}, {"name": "block3d_project_bn/moving_mean", "shape": [64], "dtype": "float32"}, {"name": "block3d_project_bn/moving_variance", "shape": [64], "dtype": "float32"}, {"name": "block4a_expand_conv/kernel", "shape": [1, 1, 64, 256], "dtype": "float32"}, {"name": "block4a_expand_bn/gamma", "shape": [256], "dtype": "float32"}, {"name": "block4a_expand_bn/beta", "shape": [256], "dtype": "float32"}, {"name": "block4a_expand_bn/moving_mean", "shape": [256], "dtype": "float32"}, {"name": "block4a_expand_bn/moving_variance", "shape": [256], "dtype": "float32"}, {"name": "block4a_dwconv2/depthwise_kernel", "shape": [3, 3, 256, 1], "dtype": "float32"}, {"name": "block4a_bn/gamma", "shape": [256], "dtype": "float32"}, {"name": "block4a_bn/beta", "shape": [256], "dtype": "float32"}, {"name": "block4a_bn/moving_mean", "shape": [256], "dtype": "float32"}, {"name": "block4a_bn/moving_variance", "shape": [256], "dtype": "float32"}, {"name": "block4a_se_reduce/kernel", "shape": [1, 1, 256, 16], "dtype": "float32"}, {"name": "block4a_se_reduce/bias", "shape": [16], "dtype": "float32"}, {"name": "block4a_se_expand/kernel", "shape": [1, 1, 16, 256], "dtype": "float32"}, {"name": "block4a_se_expand/bias", "shape": [256], "dtype": "float32"}, {"name": "block4a_project_conv/kernel", "shape": [1, 1, 256, 128], "dtype": "float32"}, {"name": "block4a_project_bn/gamma", "shape": [128], "dtype": "float32"}, {"name": "block4a_project_bn/beta", "shape": [128], "dtype": "float32"}, {"name": "block4a_project_bn/moving_mean", "shape": [128], "dtype": "float32"}, {"name": "block4a_project_bn/moving_variance", "shape": [128], "dtype": "float32"}, {"name": "block4b_expand_conv/kernel", "shape": [1, 1, 128, 512], "dtype": "float32"}, {"name": "block4b_expand_bn/gamma", "shape": [512], "dtype": "float32"}, {"name": "block4b_expand_bn/beta", "shape": [512], "dtype": "float32"}, {"name": "block4b_expand_bn/moving_mean", "shape": [512], "dtype": "float32"}, {"name": "block4b_expand_bn/moving_variance", "shape": [512], "dtype": "float32"}, {"name": "block4b_dwconv2/depthwise_kernel", "shape": [3, 3, 512, 1], "dtype": "float32"}, {"name": "block4b_bn/gamma", "shape": [512], "dtype": "float32"}, {"name": "block4b_bn/beta", "shape": [512], "dtype": "float32"}, {"name": "block4b_bn/moving_mean", "shape": [512], "dtype": "float32"}, {"name": "block4b_bn/moving_variance", "shape": [512], "dtype": "float32"}, {"name": "block4b_se_reduce/kernel", "shape": [1, 1, 512, 32], "dtype": "float32"}, {"name": "block4b_se_reduce/bias", "shape": [32], "dtype": "float32"}, {"name": "block4b_se_expand/kernel", "shape": [1, 1, 32, 512], "dtype": "float32"}, {"name": "block4b_se_expand/bias", "shape": [512], "dtype": "float32"}, {"name": "block4b_project_conv/kernel", "shape": [1, 1, 512, 128], "dtype": "float32"}, {"name": "block4b_project_bn/gamma", "shape": [128], "dtype": "float32"}, {"name": "block4b_project_bn/beta", "shape": [128], "dtype": "float32"}, {"name": "block4b_project_bn/moving_mean", "shape": [128], "dtype": "float32"}, {"name": "block4b_project_bn/moving_variance", "shape": [128], "dtype": "float32"}, {"name": "block4c_expand_conv/kernel", "shape": [1, 1, 128, 512], "dtype": "float32"}, {"name": "block4c_expand_bn/gamma", "shape": [512], "dtype": "float32"}, {"name": "block4c_expand_bn/beta", "shape": [512], "dtype": "float32"}, {"name": "block4c_expand_bn/moving_mean", "shape": [512], "dtype": "float32"}, {"name": "block4c_expand_bn/moving_variance", "shape": [512], "dtype": "float32"}, {"name": "block4c_dwconv2/depthwise_kernel", "shape": [3, 3, 512, 1], "dtype": "float32"}, {"name": "block4c_bn/gamma", "shape": [512], "dtype": "float32"}, {"name": "block4c_bn/beta", "shape": [512], "dtype": "float32"}, {"name": "block4c_bn/moving_mean", "shape": [512], "dtype": "float32"}, {"name": "block4c_bn/moving_variance", "shape": [512], "dtype": "float32"}, {"name": "block4c_se_reduce/kernel", "shape": [1, 1, 512, 32], "dtype": "float32"}, {"name": "block4c_se_reduce/bias", "shape": [32], "dtype": "float32"}, {"name": "block4c_se_expand/kernel", "shape": [1, 1, 32, 512], "dtype": "float32"}, {"name": "block4c_se_expand/bias", "shape": [512], "dtype": "float32"}, {"name": "block4c_project_conv/kernel", "shape": [1, 1, 512, 128], "dtype": "float32"}, {"name": "block4c_project_bn/gamma", "shape": [128], "dtype": "float32"}, {"name": "block4c_project_bn/beta", "shape": [128], "dtype": "float32"}, {"name": "block4c_project_bn/moving_mean", "shape": [128], "dtype": "float32"}, {"name": "block4c_project_bn/moving_variance", "shape": [128], "dtype": "float32"}, {"name": "block4d_expand_conv/kernel", "shape": [1, 1, 128, 512], "dtype": "float32"}, {"name": "block4d_expand_bn/gamma", "shape": [512], "dtype": "float32"}, {"name": "block4d_expand_bn/beta", "shape": [512], "dtype": "float32"}, {"name": "block4d_expand_bn/moving_mean", "shape": [512], "dtype": "float32"}, {"name": "block4d_expand_bn/moving_variance", "shape": [512], "dtype": "float32"}, {"name": "block4d_dwconv2/depthwise_kernel", "shape": [3, 3, 512, 1], "dtype": "float32"}, {"name": "block4d_bn/gamma", "shape": [512], "dtype": "float32"}, {"name": "block4d_bn/beta", "shape": [512], "dtype": "float32"}, {"name": "block4d_bn/moving_mean", "shape": [512], "dtype": "float32"}, {"name": "block4d_bn/moving_variance", "shape": [512], "dtype": "float32"}, {"name": "block4d_se_reduce/kernel", "shape": [1, 1, 512, 32], "dtype": "float32"}, {"name": "block4d_se_reduce/bias", "shape": [32], "dtype": "float32"}, {"name": "block4d_se_expand/kernel", "shape": [1, 1, 32, 512], "dtype": "float32"}, {"name": "block4d_se_expand/bias", "shape": [512], "dtype": "float32"}, {"name": "block4d_project_conv/kernel", "shape": [1, 1, 512, 128], "dtype": "float32"}, {"name": "block4d_project_bn/gamma", "shape": [128], "dtype": "float32"}, {"name": "block4d_project_bn/beta", "shape": [128], "dtype": "float32"}, {"name": "block4d_project_bn/moving_mean", "shape": [128], "dtype": "float32"}, {"name": "block4d_project_bn/moving_variance", "shape": [128], "dtype": "float32"}, {"name": "block4e_expand_conv/kernel", "shape": [1, 1, 128, 512], "dtype": "float32"}, {"name": "block4e_expand_bn/gamma", "shape": [512], "dtype": "float32"}, {"name": "block4e_expand_bn/beta", "shape": [512], "dtype": "float32"}, {"name": "block4e_expand_bn/moving_mean", "shape": [512], "dtype": "float32"}, {"name": "block4e_expand_bn/moving_variance", "shape": [512], "dtype": "float32"}, {"name": "block4e_dwconv2/depthwise_kernel", "shape": [3, 3, 512, 1], "dtype": "float32"}, {"name": "block4e_bn/gamma", "shape": [512], "dtype": "float32"}, {"name": "block4e_bn/beta", "shape": [512], "dtype": "float32"}, {"name": "block4e_bn/moving_mean", "shape": [512], "dtype": "float32"}, {"name": "block4e_bn/moving_variance", "shape": [512], "dtype": "float32"}, {"name": "block4e_se_reduce/kernel", "shape": [1, 1, 512, 32], "dtype": "float32"}, {"name": "block4e_se_reduce/bias", "shape": [32], "dtype": "float32"}, {"name": "block4e_se_expand/kernel", "shape": [1, 1, 32, 512], "dtype": "float32"}, {"name": "block4e_se_expand/bias", "shape": [512], "dtype": "float32"}, {"name": "block4e_project_conv/kernel", "shape": [1, 1, 512, 128], "dtype": "float32"}, {"name": "block4e_project_bn/gamma", "shape": [128], "dtype": "float32"}, {"name": "block4e_project_bn/beta", "shape": [128], "dtype": "float32"}, {"name": "block4e_project_bn/moving_mean", "shape": [128], "dtype": "float32"}, {"name": "block4e_project_bn/moving_variance", "shape": [128], "dtype": "float32"}, {"name": "block4f_expand_conv/kernel", "shape": [1, 1, 128, 512], "dtype": "float32"}, {"name": "block4f_expand_bn/gamma", "shape": [512], "dtype": "float32"}, {"name": "block4f_expand_bn/beta", "shape": [512], "dtype": "float32"}, {"name": "block4f_expand_bn/moving_mean", "shape": [512], "dtype": "float32"}, {"name": "block4f_expand_bn/moving_variance", "shape": [512], "dtype": "float32"}, {"name": "block4f_dwconv2/depthwise_kernel", "shape": [3, 3, 512, 1], "dtype": "float32"}, {"name": "block4f_bn/gamma", "shape": [512], "dtype": "float32"}, {"name": "block4f_bn/beta", "shape": [512], "dtype": "float32"}, {"name": "block4f_bn/moving_mean", "shape": [512], "dtype": "float32"}, {"name": "block4f_bn/moving_variance", "shape": [512], "dtype": "float32"}, {"name": "block4f_se_reduce/kernel", "shape": [1, 1, 512, 32], "dtype": "float32"}, {"name": "block4f_se_reduce/bias", "shape": [32], "dtype": "float32"}, {"name": "block4f_se_expand/kernel", "shape": [1, 1, 32, 512], "dtype": "float32"}, {"name": "block4f_se_expand/bias", "shape": [512], "dtype": "float32"}, {"name": "block4f_project_conv/kernel", "shape": [1, 1, 512, 128], "dtype": "float32"}, {"name": "block4f_project_bn/gamma", "shape": [128], "dtype": "float32"}, {"name": "block4f_project_bn/beta", "shape": [128], "dtype": "float32"}, {"name": "block4f_project_bn/moving_mean", "shape": [128], "dtype": "float32"}, {"name": "block4f_project_bn/moving_variance", "shape": [128], "dtype": "float32"}, {"name": "block5a_expand_conv/kernel", "shape": [1, 1, 128, 768], "dtype": "float32"}, {"name": "block5a_expand_bn/gamma", "shape": [768], "dtype": "float32"}, {"name": "block5a_expand_bn/beta", "shape": [768], "dtype": "float32"}, {"name": "block5a_expand_bn/moving_mean", "shape": [768], "dtype": "float32"}, {"name": "block5a_expand_bn/moving_variance", "shape": [768], "dtype": "float32"}, {"name": "block5a_dwconv2/depthwise_kernel", "shape": [3, 3, 768, 1], "dtype": "float32"}, {"name": "block5a_bn/gamma", "shape": [768], "dtype": "float32"}, {"name": "block5a_bn/beta", "shape": [768], "dtype": "float32"}, {"name": "block5a_bn/moving_mean", "shape": [768], "dtype": "float32"}, {"name": "block5a_bn/moving_variance", "shape": [768], "dtype": "float32"}, {"name": "block5a_se_reduce/kernel", "shape": [1, 1, 768, 32], "dtype": "float32"}, {"name": "block5a_se_reduce/bias", "shape": [32], "dtype": "float32"}, {"name": "block5a_se_expand/kernel", "shape": [1, 1, 32, 768], "dtype": "float32"}, {"name": "block5a_se_expand/bias", "shape": [768], "dtype": "float32"}, {"name": "block5a_project_conv/kernel", "shape": [1, 1, 768, 160], "dtype": "float32"}, {"name": "block5a_project_bn/gamma", "shape": [160], "dtype": "float32"}, {"name": "block5a_project_bn/beta", "shape": [160], "dtype": "float32"}, {"name": "block5a_project_bn/moving_mean", "shape": [160], "dtype": "float32"}, {"name": "block5a_project_bn/moving_variance", "shape": [160], "dtype": "float32"}, {"name": "block5b_expand_conv/kernel", "shape": [1, 1, 160, 960], "dtype": "float32"}, {"name": "block5b_expand_bn/gamma", "shape": [960], "dtype": "float32"}, {"name": "block5b_expand_bn/beta", "shape": [960], "dtype": "float32"}, {"name": "block5b_expand_bn/moving_mean", "shape": [960], "dtype": "float32"}, {"name": "block5b_expand_bn/moving_variance", "shape": [960], "dtype": "float32"}, {"name": "block5b_dwconv2/depthwise_kernel", "shape": [3, 3, 960, 1], "dtype": "float32"}, {"name": "block5b_bn/gamma", "shape": [960], "dtype": "float32"}, {"name": "block5b_bn/beta", "shape": [960], "dtype": "float32"}, {"name": "block5b_bn/moving_mean", "shape": [960], "dtype": "float32"}, {"name": "block5b_bn/moving_variance", "shape": [960], "dtype": "float32"}, {"name": "block5b_se_reduce/kernel", "shape": [1, 1, 960, 40], "dtype": "float32"}, {"name": "block5b_se_reduce/bias", "shape": [40], "dtype": "float32"}, {"name": "block5b_se_expand/kernel", "shape": [1, 1, 40, 960], "dtype": "float32"}, {"name": "block5b_se_expand/bias", "shape": [960], "dtype": "float32"}, {"name": "block5b_project_conv/kernel", "shape": [1, 1, 960, 160], "dtype": "float32"}, {"name": "block5b_project_bn/gamma", "shape": [160], "dtype": "float32"}, {"name": "block5b_project_bn/beta", "shape": [160], "dtype": "float32"}, {"name": "block5b_project_bn/moving_mean", "shape": [160], "dtype": "float32"}, {"name": "block5b_project_bn/moving_variance", "shape": [160], "dtype": "float32"}, {"name": "block5c_expand_conv/kernel", "shape": [1, 1, 160, 960], "dtype": "float32"}, {"name": "block5c_expand_bn/gamma", "shape": [960], "dtype": "float32"}, {"name": "block5c_expand_bn/beta", "shape": [960], "dtype": "float32"}, {"name": "block5c_expand_bn/moving_mean", "shape": [960], "dtype": "float32"}, {"name": "block5c_expand_bn/moving_variance", "shape": [960], "dtype": "float32"}, {"name": "block5c_dwconv2/depthwise_kernel", "shape": [3, 3, 960, 1], "dtype": "float32"}, {"name": "block5c_bn/gamma", "shape": [960], "dtype": "float32"}, {"name": "block5c_bn/beta", "shape": [960], "dtype": "float32"}, {"name": "block5c_bn/moving_mean", "shape": [960], "dtype": "float32"}, {"name": "block5c_bn/moving_variance", "shape": [960], "dtype": "float32"}, {"name": "block5c_se_reduce/kernel", "shape": [1, 1, 960, 40], "dtype": "float32"}, {"name": "block5c_se_reduce/bias", "shape": [40], "dtype": "float32"}, {"name": "block5c_se_expand/kernel", "shape": [1, 1, 40, 960], "dtype": "float32"}, {"name": "block5c_se_expand/bias", "shape": [960], "dtype": "float32"}, {"name": "block5c_project_conv/kernel", "shape": [1, 1, 960, 160], "dtype": "float32"}, {"name": "block5c_project_bn/gamma", "shape": [160], "dtype": "float32"}, {"name": "block5c_project_bn/beta", "shape": [160], "dtype": "float32"}, {"name": "block5c_project_bn/moving_mean", "shape": [160], "dtype": "float32"}, {"name": "block5c_project_bn/moving_variance", "shape": [160], "dtype": "float32"}, {"name": "block5d_expand_conv/kernel", "shape": [1, 1, 160, 960], "dtype": "float32"}, {"name": "block5d_expand_bn/gamma", "shape": [960], "dtype": "float32"}, {"name": "block5d_expand_bn/beta", "shape": [960], "dtype": "float32"}, {"name": "block5d_expand_bn/moving_mean", "shape": [960], "dtype": "float32"}, {"name": "block5d_expand_bn/moving_variance", "shape": [960], "dtype": "float32"}, {"name": "block5d_dwconv2/depthwise_kernel", "shape": [3, 3, 960, 1], "dtype": "float32"}, {"name": "block5d_bn/gamma", "shape": [960], "dtype": "float32"}, {"name": "block5d_bn/beta", "shape": [960], "dtype": "float32"}, {"name": "block5d_bn/moving_mean", "shape": [960], "dtype": "float32"}, {"name": "block5d_bn/moving_variance", "shape": [960], "dtype": "float32"}, {"name": "block5d_se_reduce/kernel", "shape": [1, 1, 960, 40], "dtype": "float32"}, {"name": "block5d_se_reduce/bias", "shape": [40], "dtype": "float32"}, {"name": "block5d_se_expand/kernel", "shape": [1, 1, 40, 960], "dtype": "float32"}, {"name": "block5d_se_expand/bias", "shape": [960], "dtype": "float32"}, {"name": "block5d_project_conv/kernel", "shape": [1, 1, 960, 160], "dtype": "float32"}, {"name": "block5d_project_bn/gamma", "shape": [160], "dtype": "float32"}, {"name": "block5d_project_bn/beta", "shape": [160], "dtype": "float32"}, {"name": "block5d_project_bn/moving_mean", "shape": [160], "dtype": "float32"}, {"name": "block5d_project_bn/moving_variance", "shape": [160], "dtype": "float32"}, {"name": "block5e_expand_conv/kernel", "shape": [1, 1, 160, 960], "dtype": "float32"}, {"name": "block5e_expand_bn/gamma", "shape": [960], "dtype": "float32"}, {"name": "block5e_expand_bn/beta", "shape": [960], "dtype": "float32"}, {"name": "block5e_expand_bn/moving_mean", "shape": [960], "dtype": "float32"}, {"name": "block5e_expand_bn/moving_variance", "shape": [960], "dtype": "float32"}, {"name": "block5e_dwconv2/depthwise_kernel", "shape": [3, 3, 960, 1], "dtype": "float32"}, {"name": "block5e_bn/gamma", "shape": [960], "dtype": "float32"}, {"name": "block5e_bn/beta", "shape": [960], "dtype": "float32"}, {"name": "block5e_bn/moving_mean", "shape": [960], "dtype": "float32"}, {"name": "block5e_bn/moving_variance", "shape": [960], "dtype": "float32"}, {"name": "block5e_se_reduce/kernel", "shape": [1, 1, 960, 40], "dtype": "float32"}, {"name": "block5e_se_reduce/bias", "shape": [40], "dtype": "float32"}, {"name": "block5e_se_expand/kernel", "shape": [1, 1, 40, 960], "dtype": "float32"}, {"name": "block5e_se_expand/bias", "shape": [960], "dtype": "float32"}, {"name": "block5e_project_conv/kernel", "shape": [1, 1, 960, 160], "dtype": "float32"}, {"name": "block5e_project_bn/gamma", "shape": [160], "dtype": "float32"}, {"name": "block5e_project_bn/beta", "shape": [160], "dtype": "float32"}, {"name": "block5e_project_bn/moving_mean", "shape": [160], "dtype": "float32"}, {"name": "block5e_project_bn/moving_variance", "shape": [160], "dtype": "float32"}, {"name": "block5f_expand_conv/kernel", "shape": [1, 1, 160, 960], "dtype": "float32"}, {"name": "block5f_expand_bn/gamma", "shape": [960], "dtype": "float32"}, {"name": "block5f_expand_bn/beta", "shape": [960], "dtype": "float32"}, {"name": "block5f_expand_bn/moving_mean", "shape": [960], "dtype": "float32"}, {"name": "block5f_expand_bn/moving_variance", "shape": [960], "dtype": "float32"}, {"name": "block5f_dwconv2/depthwise_kernel", "shape": [3, 3, 960, 1], "dtype": "float32"}, {"name": "block5f_bn/gamma", "shape": [960], "dtype": "float32"}, {"name": "block5f_bn/beta", "shape": [960], "dtype": "float32"}, {"name": "block5f_bn/moving_mean", "shape": [960], "dtype": "float32"}, {"name": "block5f_bn/moving_variance", "shape": [960], "dtype": "float32"}, {"name": "block5f_se_reduce/kernel", "shape": [1, 1, 960, 40], "dtype": "float32"}, {"name": "block5f_se_reduce/bias", "shape": [40], "dtype": "float32"}, {"name": "block5f_se_expand/kernel", "shape": [1, 1, 40, 960], "dtype": "float32"}, {"name": "block5f_se_expand/bias", "shape": [960], "dtype": "float32"}, {"name": "block5f_project_conv/kernel", "shape": [1, 1, 960, 160], "dtype": "float32"}, {"name": "block5f_project_bn/gamma", "shape": [160], "dtype": "float32"}, {"name": "block5f_project_bn/beta", "shape": [160], "dtype": "float32"}, {"name": "block5f_project_bn/moving_mean", "shape": [160], "dtype": "float32"}, {"name": "block5f_project_bn/moving_variance", "shape": [160], "dtype": "float32"}, {"name": "block5g_expand_conv/kernel", "shape": [1, 1, 160, 960], "dtype": "float32"}, {"name": "block5g_expand_bn/gamma", "shape": [960], "dtype": "float32"}, {"name": "block5g_expand_bn/beta", "shape": [960], "dtype": "float32"}, {"name": "block5g_expand_bn/moving_mean", "shape": [960], "dtype": "float32"}, {"name": "block5g_expand_bn/moving_variance", "shape": [960], "dtype": "float32"}, {"name": "block5g_dwconv2/depthwise_kernel", "shape": [3, 3, 960, 1], "dtype": "float32"}, {"name": "block5g_bn/gamma", "shape": [960], "dtype": "float32"}, {"name": "block5g_bn/beta", "shape": [960], "dtype": "float32"}, {"name": "block5g_bn/moving_mean", "shape": [960], "dtype": "float32"}, {"name": "block5g_bn/moving_variance", "shape": [960], "dtype": "float32"}, {"name": "block5g_se_reduce/kernel", "shape": [1, 1, 960, 40], "dtype": "float32"}, {"name": "block5g_se_reduce/bias", "shape": [40], "dtype": "float32"}, {"name": "block5g_se_expand/kernel", "shape": [1, 1, 40, 960], "dtype": "float32"}, {"name": "block5g_se_expand/bias", "shape": [960], "dtype": "float32"}, {"name": "block5g_project_conv/kernel", "shape": [1, 1, 960, 160], "dtype": "float32"}, {"name": "block5g_project_bn/gamma", "shape": [160], "dtype": "float32"}, {"name": "block5g_project_bn/beta", "shape": [160], "dtype": "float32"}, {"name": "block5g_project_bn/moving_mean", "shape": [160], "dtype": "float32"}, {"name": "block5g_project_bn/moving_variance", "shape": [160], "dtype": "float32"}, {"name": "block5h_expand_conv/kernel", "shape": [1, 1, 160, 960], "dtype": "float32"}, {"name": "block5h_expand_bn/gamma", "shape": [960], "dtype": "float32"}, {"name": "block5h_expand_bn/beta", "shape": [960], "dtype": "float32"}, {"name": "block5h_expand_bn/moving_mean", "shape": [960], "dtype": "float32"}, {"name": "block5h_expand_bn/moving_variance", "shape": [960], "dtype": "float32"}, {"name": "block5h_dwconv2/depthwise_kernel", "shape": [3, 3, 960, 1], "dtype": "float32"}, {"name": "block5h_bn/gamma", "shape": [960], "dtype": "float32"}, {"name": "block5h_bn/beta", "shape": [960], "dtype": "float32"}, {"name": "block5h_bn/moving_mean", "shape": [960], "dtype": "float32"}, {"name": "block5h_bn/moving_variance", "shape": [960], "dtype": "float32"}, {"name": "block5h_se_reduce/kernel", "shape": [1, 1, 960, 40], "dtype": "float32"}, {"name": "block5h_se_reduce/bias", "shape": [40], "dtype": "float32"}, {"name": "block5h_se_expand/kernel", "shape": [1, 1, 40, 960], "dtype": "float32"}, {"name": "block5h_se_expand/bias", "shape": [960], "dtype": "float32"}, {"name": "block5h_project_conv/kernel", "shape": [1, 1, 960, 160], "dtype": "float32"}, {"name": "block5h_project_bn/gamma", "shape": [160], "dtype": "float32"}, {"name": "block5h_project_bn/beta", "shape": [160], "dtype": "float32"}, {"name": "block5h_project_bn/moving_mean", "shape": [160], "dtype": "float32"}, {"name": "block5h_project_bn/moving_variance", "shape": [160], "dtype": "float32"}, {"name": "block5i_expand_conv/kernel", "shape": [1, 1, 160, 960], "dtype": "float32"}, {"name": "block5i_expand_bn/gamma", "shape": [960], "dtype": "float32"}, {"name": "block5i_expand_bn/beta", "shape": [960], "dtype": "float32"}, {"name": "block5i_expand_bn/moving_mean", "shape": [960], "dtype": "float32"}, {"name": "block5i_expand_bn/moving_variance", "shape": [960], "dtype": "float32"}, {"name": "block5i_dwconv2/depthwise_kernel", "shape": [3, 3, 960, 1], "dtype": "float32"}, {"name": "block5i_bn/gamma", "shape": [960], "dtype": "float32"}, {"name": "block5i_bn/beta", "shape": [960], "dtype": "float32"}, {"name": "block5i_bn/moving_mean", "shape": [960], "dtype": "float32"}, {"name": "block5i_bn/moving_variance", "shape": [960], "dtype": "float32"}, {"name": "block5i_se_reduce/kernel", "shape": [1, 1, 960, 40], "dtype": "float32"}, {"name": "block5i_se_reduce/bias", "shape": [40], "dtype": "float32"}, {"name": "block5i_se_expand/kernel", "shape": [1, 1, 40, 960], "dtype": "float32"}, {"name": "block5i_se_expand/bias", "shape": [960], "dtype": "float32"}, {"name": "block5i_project_conv/kernel", "shape": [1, 1, 960, 160], "dtype": "float32"}, {"name": "block5i_project_bn/gamma", "shape": [160], "dtype": "float32"}, {"name": "block5i_project_bn/beta", "shape": [160], "dtype": "float32"}, {"name": "block5i_project_bn/moving_mean", "shape": [160], "dtype": "float32"}, {"name": "block5i_project_bn/moving_variance", "shape": [160], "dtype": "float32"}, {"name": "block6a_expand_conv/kernel", "shape": [1, 1, 160, 960], "dtype": "float32"}, {"name": "block6a_expand_bn/gamma", "shape": [960], "dtype": "float32"}, {"name": "block6a_expand_bn/beta", "shape": [960], "dtype": "float32"}, {"name": "block6a_expand_bn/moving_mean", "shape": [960], "dtype": "float32"}, {"name": "block6a_expand_bn/moving_variance", "shape": [960], "dtype": "float32"}, {"name": "block6a_dwconv2/depthwise_kernel", "shape": [3, 3, 960, 1], "dtype": "float32"}, {"name": "block6a_bn/gamma", "shape": [960], "dtype": "float32"}, {"name": "block6a_bn/beta", "shape": [960], "dtype": "float32"}, {"name": "block6a_bn/moving_mean", "shape": [960], "dtype": "float32"}, {"name": "block6a_bn/moving_variance", "shape": [960], "dtype": "float32"}, {"name": "block6a_se_reduce/kernel", "shape": [1, 1, 960, 40], "dtype": "float32"}, {"name": "block6a_se_reduce/bias", "shape": [40], "dtype": "float32"}, {"name": "block6a_se_expand/kernel", "shape": [1, 1, 40, 960], "dtype": "float32"}, {"name": "block6a_se_expand/bias", "shape": [960], "dtype": "float32"}, {"name": "block6a_project_conv/kernel", "shape": [1, 1, 960, 256], "dtype": "float32"}, {"name": "block6a_project_bn/gamma", "shape": [256], "dtype": "float32"}, {"name": "block6a_project_bn/beta", "shape": [256], "dtype": "float32"}, {"name": "block6a_project_bn/moving_mean", "shape": [256], "dtype": "float32"}, {"name": "block6a_project_bn/moving_variance", "shape": [256], "dtype": "float32"}, {"name": "block6b_expand_conv/kernel", "shape": [1, 1, 256, 1536], "dtype": "float32"}, {"name": "block6b_expand_bn/gamma", "shape": [1536], "dtype": "float32"}, {"name": "block6b_expand_bn/beta", "shape": [1536], "dtype": "float32"}, {"name": "block6b_expand_bn/moving_mean", "shape": [1536], "dtype": "float32"}, {"name": "block6b_expand_bn/moving_variance", "shape": [1536], "dtype": "float32"}, {"name": "block6b_dwconv2/depthwise_kernel", "shape": [3, 3, 1536, 1], "dtype": "float32"}, {"name": "block6b_bn/gamma", "shape": [1536], "dtype": "float32"}, {"name": "block6b_bn/beta", "shape": [1536], "dtype": "float32"}, {"name": "block6b_bn/moving_mean", "shape": [1536], "dtype": "float32"}, {"name": "block6b_bn/moving_variance", "shape": [1536], "dtype": "float32"}, {"name": "block6b_se_reduce/kernel", "shape": [1, 1, 1536, 64], "dtype": "float32"}, {"name": "block6b_se_reduce/bias", "shape": [64], "dtype": "float32"}, {"name": "block6b_se_expand/kernel", "shape": [1, 1, 64, 1536], "dtype": "float32"}, {"name": "block6b_se_expand/bias", "shape": [1536], "dtype": "float32"}, {"name": "block6b_project_conv/kernel", "shape": [1, 1, 1536, 256], "dtype": "float32"}, {"name": "block6b_project_bn/gamma", "shape": [256], "dtype": "float32"}, {"name": "block6b_project_bn/beta", "shape": [256], "dtype": "float32"}, {"name": "block6b_project_bn/moving_mean", "shape": [256], "dtype": "float32"}, {"name": "block6b_project_bn/moving_variance", "shape": [256], "dtype": "float32"}, {"name": "block6c_expand_conv/kernel", "shape": [1, 1, 256, 1536], "dtype": "float32"}, {"name": "block6c_expand_bn/gamma", "shape": [1536], "dtype": "float32"}, {"name": "block6c_expand_bn/beta", "shape": [1536], "dtype": "float32"}, {"name": "block6c_expand_bn/moving_mean", "shape": [1536], "dtype": "float32"}, {"name": "block6c_expand_bn/moving_variance", "shape": [1536], "dtype": "float32"}, {"name": "block6c_dwconv2/depthwise_kernel", "shape": [3, 3, 1536, 1], "dtype": "float32"}, {"name": "block6c_bn/gamma", "shape": [1536], "dtype": "float32"}, {"name": "block6c_bn/beta", "shape": [1536], "dtype": "float32"}, {"name": "block6c_bn/moving_mean", "shape": [1536], "dtype": "float32"}, {"name": "block6c_bn/moving_variance", "shape": [1536], "dtype": "float32"}, {"name": "block6c_se_reduce/kernel", "shape": [1, 1, 1536, 64], "dtype": "float32"}, {"name": "block6c_se_reduce/bias", "shape": [64], "dtype": "float32"}, {"name": "block6c_se_expand/kernel", "shape": [1, 1, 64, 1536], "dtype": "float32"}, {"name": "block6c_se_expand/bias", "shape": [1536], "dtype": "float32"}, {"name": "block6c_project_conv/kernel", "shape": [1, 1, 1536, 256], "dtype": "float32"}, {"name": "block6c_project_bn/gamma", "shape": [256], "dtype": "float32"}, {"name": "block6c_project_bn/beta", "shape": [256], "dtype": "float32"}, {"name": "block6c_project_bn/moving_mean", "shape": [256], "dtype": "float32"}, {"name": "block6c_project_bn/moving_variance", "shape": [256], "dtype": "float32"}, {"name": "block6d_expand_conv/kernel", "shape": [1, 1, 256, 1536], "dtype": "float32"}, {"name": "block6d_expand_bn/gamma", "shape": [1536], "dtype": "float32"}, {"name": "block6d_expand_bn/beta", "shape": [1536], "dtype": "float32"}, {"name": "block6d_expand_bn/moving_mean", "shape": [1536], "dtype": "float32"}, {"name": "block6d_expand_bn/moving_variance", "shape": [1536], "dtype": "float32"}, {"name": "block6d_dwconv2/depthwise_kernel", "shape": [3, 3, 1536, 1], "dtype": "float32"}, {"name": "block6d_bn/gamma", "shape": [1536], "dtype": "float32"}, {"name": "block6d_bn/beta", "shape": [1536], "dtype": "float32"}, {"name": "block6d_bn/moving_mean", "shape": [1536], "dtype": "float32"}, {"name": "block6d_bn/moving_variance", "shape": [1536], "dtype": "float32"}, {"name": "block6d_se_reduce/kernel", "shape": [1, 1, 1536, 64], "dtype": "float32"}, {"name": "block6d_se_reduce/bias", "shape": [64], "dtype": "float32"}, {"name": "block6d_se_expand/kernel", "shape": [1, 1, 64, 1536], "dtype": "float32"}, {"name": "block6d_se_expand/bias", "shape": [1536], "dtype": "float32"}, {"name": "block6d_project_conv/kernel", "shape": [1, 1, 1536, 256], "dtype": "float32"}, {"name": "block6d_project_bn/gamma", "shape": [256], "dtype": "float32"}, {"name": "block6d_project_bn/beta", "shape": [256], "dtype": "float32"}, {"name": "block6d_project_bn/moving_mean", "shape": [256], "dtype": "float32"}, {"name": "block6d_project_bn/moving_variance", "shape": [256], "dtype": "float32"}, {"name": "block6e_expand_conv/kernel", "shape": [1, 1, 256, 1536], "dtype": "float32"}, {"name": "block6e_expand_bn/gamma", "shape": [1536], "dtype": "float32"}, {"name": "block6e_expand_bn/beta", "shape": [1536], "dtype": "float32"}, {"name": "block6e_expand_bn/moving_mean", "shape": [1536], "dtype": "float32"}, {"name": "block6e_expand_bn/moving_variance", "shape": [1536], "dtype": "float32"}, {"name": "block6e_dwconv2/depthwise_kernel", "shape": [3, 3, 1536, 1], "dtype": "float32"}, {"name": "block6e_bn/gamma", "shape": [1536], "dtype": "float32"}, {"name": "block6e_bn/beta", "shape": [1536], "dtype": "float32"}, {"name": "block6e_bn/moving_mean", "shape": [1536], "dtype": "float32"}, {"name": "block6e_bn/moving_variance", "shape": [1536], "dtype": "float32"}, {"name": "block6e_se_reduce/kernel", "shape": [1, 1, 1536, 64], "dtype": "float32"}, {"name": "block6e_se_reduce/bias", "shape": [64], "dtype": "float32"}, {"name": "block6e_se_expand/kernel", "shape": [1, 1, 64, 1536], "dtype": "float32"}, {"name": "block6e_se_expand/bias", "shape": [1536], "dtype": "float32"}, {"name": "block6e_project_conv/kernel", "shape": [1, 1, 1536, 256], "dtype": "float32"}, {"name": "block6e_project_bn/gamma", "shape": [256], "dtype": "float32"}, {"name": "block6e_project_bn/beta", "shape": [256], "dtype": "float32"}, {"name": "block6e_project_bn/moving_mean", "shape": [256], "dtype": "float32"}, {"name": "block6e_project_bn/moving_variance", "shape": [256], "dtype": "float32"}, {"name": "block6f_expand_conv/kernel", "shape": [1, 1, 256, 1536], "dtype": "float32"}, {"name": "block6f_expand_bn/gamma", "shape": [1536], "dtype": "float32"}, {"name": "block6f_expand_bn/beta", "shape": [1536], "dtype": "float32"}, {"name": "block6f_expand_bn/moving_mean", "shape": [1536], "dtype": "float32"}, {"name": "block6f_expand_bn/moving_variance", "shape": [1536], "dtype": "float32"}, {"name": "block6f_dwconv2/depthwise_kernel", "shape": [3, 3, 1536, 1], "dtype": "float32"}, {"name": "block6f_bn/gamma", "shape": [1536], "dtype": "float32"}, {"name": "block6f_bn/beta", "shape": [1536], "dtype": "float32"}, {"name": "block6f_bn/moving_mean", "shape": [1536], "dtype": "float32"}, {"name": "block6f_bn/moving_variance", "shape": [1536], "dtype": "float32"}, {"name": "block6f_se_reduce/kernel", "shape": [1, 1, 1536, 64], "dtype": "float32"}, {"name": "block6f_se_reduce/bias", "shape": [64], "dtype": "float32"}, {"name": "block6f_se_expand/kernel", "shape": [1, 1, 64, 1536], "dtype": "float32"}, {"name": "block6f_se_expand/bias", "shape": [1536], "dtype": "float32"}, {"name": "block6f_project_conv/kernel", "shape": [1, 1, 1536, 256], "dtype": "float32"}, {"name": "block6f_project_bn/gamma", "shape": [256], "dtype": "float32"}, {"name": "block6f_project_bn/beta", "shape": [256], "dtype": "float32"}, {"name": "block6f_project_bn/moving_mean", "shape": [256], "dtype": "float32"}, {"name": "block6f_project_bn/moving_variance", "shape": [256], "dtype": "float32"}, {"name": "block6g_expand_conv/kernel", "shape": [1, 1, 256, 1536], "dtype": "float32"}, {"name": "block6g_expand_bn/gamma", "shape": [1536], "dtype": "float32"}, {"name": "block6g_expand_bn/beta", "shape": [1536], "dtype": "float32"}, {"name": "block6g_expand_bn/moving_mean", "shape": [1536], "dtype": "float32"}, {"name": "block6g_expand_bn/moving_variance", "shape": [1536], "dtype": "float32"}, {"name": "block6g_dwconv2/depthwise_kernel", "shape": [3, 3, 1536, 1], "dtype": "float32"}, {"name": "block6g_bn/gamma", "shape": [1536], "dtype": "float32"}, {"name": "block6g_bn/beta", "shape": [1536], "dtype": "float32"}, {"name": "block6g_bn/moving_mean", "shape": [1536], "dtype": "float32"}, {"name": "block6g_bn/moving_variance", "shape": [1536], "dtype": "float32"}, {"name": "block6g_se_reduce/kernel", "shape": [1, 1, 1536, 64], "dtype": "float32"}, {"name": "block6g_se_reduce/bias", "shape": [64], "dtype": "float32"}, {"name": "block6g_se_expand/kernel", "shape": [1, 1, 64, 1536], "dtype": "float32"}, {"name": "block6g_se_expand/bias", "shape": [1536], "dtype": "float32"}, {"name": "block6g_project_conv/kernel", "shape": [1, 1, 1536, 256], "dtype": "float32"}, {"name": "block6g_project_bn/gamma", "shape": [256], "dtype": "float32"}, {"name": "block6g_project_bn/beta", "shape": [256], "dtype": "float32"}, {"name": "block6g_project_bn/moving_mean", "shape": [256], "dtype": "float32"}, {"name": "block6g_project_bn/moving_variance", "shape": [256], "dtype": "float32"}, {"name": "block6h_expand_conv/kernel", "shape": [1, 1, 256, 1536], "dtype": "float32"}, {"name": "block6h_expand_bn/gamma", "shape": [1536], "dtype": "float32"}, {"name": "block6h_expand_bn/beta", "shape": [1536], "dtype": "float32"}, {"name": "block6h_expand_bn/moving_mean", "shape": [1536], "dtype": "float32"}, {"name": "block6h_expand_bn/moving_variance", "shape": [1536], "dtype": "float32"}, {"name": "block6h_dwconv2/depthwise_kernel", "shape": [3, 3, 1536, 1], "dtype": "float32"}, {"name": "block6h_bn/gamma", "shape": [1536], "dtype": "float32"}, {"name": "block6h_bn/beta", "shape": [1536], "dtype": "float32"}, {"name": "block6h_bn/moving_mean", "shape": [1536], "dtype": "float32"}, {"name": "block6h_bn/moving_variance", "shape": [1536], "dtype": "float32"}, {"name": "block6h_se_reduce/kernel", "shape": [1, 1, 1536, 64], "dtype": "float32"}, {"name": "block6h_se_reduce/bias", "shape": [64], "dtype": "float32"}, {"name": "block6h_se_expand/kernel", "shape": [1, 1, 64, 1536], "dtype": "float32"}, {"name": "block6h_se_expand/bias", "shape": [1536], "dtype": "float32"}, {"name": "block6h_project_conv/kernel", "shape": [1, 1, 1536, 256], "dtype": "float32"}, {"name": "block6h_project_bn/gamma", "shape": [256], "dtype": "float32"}, {"name": "block6h_project_bn/beta", "shape": [256], "dtype": "float32"}, {"name": "block6h_project_bn/moving_mean", "shape": [256], "dtype": "float32"}, {"name": "block6h_project_bn/moving_variance", "shape": [256], "dtype": "float32"}, {"name": "block6i_expand_conv/kernel", "shape": [1, 1, 256, 1536], "dtype": "float32"}, {"name": "block6i_expand_bn/gamma", "shape": [1536], "dtype": "float32"}, {"name": "block6i_expand_bn/beta", "shape": [1536], "dtype": "float32"}, {"name": "block6i_expand_bn/moving_mean", "shape": [1536], "dtype": "float32"}, {"name": "block6i_expand_bn/moving_variance", "shape": [1536], "dtype": "float32"}, {"name": "block6i_dwconv2/depthwise_kernel", "shape": [3, 3, 1536, 1], "dtype": "float32"}, {"name": "block6i_bn/gamma", "shape": [1536], "dtype": "float32"}, {"name": "block6i_bn/beta", "shape": [1536], "dtype": "float32"}, {"name": "block6i_bn/moving_mean", "shape": [1536], "dtype": "float32"}, {"name": "block6i_bn/moving_variance", "shape": [1536], "dtype": "float32"}, {"name": "block6i_se_reduce/kernel", "shape": [1, 1, 1536, 64], "dtype": "float32"}, {"name": "block6i_se_reduce/bias", "shape": [64], "dtype": "float32"}, {"name": "block6i_se_expand/kernel", "shape": [1, 1, 64, 1536], "dtype": "float32"}, {"name": "block6i_se_expand/bias", "shape": [1536], "dtype": "float32"}, {"name": "block6i_project_conv/kernel", "shape": [1, 1, 1536, 256], "dtype": "float32"}, {"name": "block6i_project_bn/gamma", "shape": [256], "dtype": "float32"}, {"name": "block6i_project_bn/beta", "shape": [256], "dtype": "float32"}, {"name": "block6i_project_bn/moving_mean", "shape": [256], "dtype": "float32"}, {"name": "block6i_project_bn/moving_variance", "shape": [256], "dtype": "float32"}, {"name": "block6j_expand_conv/kernel", "shape": [1, 1, 256, 1536], "dtype": "float32"}, {"name": "block6j_expand_bn/gamma", "shape": [1536], "dtype": "float32"}, {"name": "block6j_expand_bn/beta", "shape": [1536], "dtype": "float32"}, {"name": "block6j_expand_bn/moving_mean", "shape": [1536], "dtype": "float32"}, {"name": "block6j_expand_bn/moving_variance", "shape": [1536], "dtype": "float32"}, {"name": "block6j_dwconv2/depthwise_kernel", "shape": [3, 3, 1536, 1], "dtype": "float32"}, {"name": "block6j_bn/gamma", "shape": [1536], "dtype": "float32"}, {"name": "block6j_bn/beta", "shape": [1536], "dtype": "float32"}, {"name": "block6j_bn/moving_mean", "shape": [1536], "dtype": "float32"}, {"name": "block6j_bn/moving_variance", "shape": [1536], "dtype": "float32"}, {"name": "block6j_se_reduce/kernel", "shape": [1, 1, 1536, 64], "dtype": "float32"}, {"name": "block6j_se_reduce/bias", "shape": [64], "dtype": "float32"}, {"name": "block6j_se_expand/kernel", "shape": [1, 1, 64, 1536], "dtype": "float32"}, {"name": "block6j_se_expand/bias", "shape": [1536], "dtype": "float32"}, {"name": "block6j_project_conv/kernel", "shape": [1, 1, 1536, 256], "dtype": "float32"}, {"name": "block6j_project_bn/gamma", "shape": [256], "dtype": "float32"}, {"name": "block6j_project_bn/beta", "shape": [256], "dtype": "float32"}, {"name": "block6j_project_bn/moving_mean", "shape": [256], "dtype": "float32"}, {"name": "block6j_project_bn/moving_variance", "shape": [256], "dtype": "float32"}, {"name": "block6k_expand_conv/kernel", "shape": [1, 1, 256, 1536], "dtype": "float32"}, {"name": "block6k_expand_bn/gamma", "shape": [1536], "dtype": "float32"}, {"name": "block6k_expand_bn/beta", "shape": [1536], "dtype": "float32"}, {"name": "block6k_expand_bn/moving_mean", "shape": [1536], "dtype": "float32"}, {"name": "block6k_expand_bn/moving_variance", "shape": [1536], "dtype": "float32"}, {"name": "block6k_dwconv2/depthwise_kernel", "shape": [3, 3, 1536, 1], "dtype": "float32"}, {"name": "block6k_bn/gamma", "shape": [1536], "dtype": "float32"}, {"name": "block6k_bn/beta", "shape": [1536], "dtype": "float32"}, {"name": "block6k_bn/moving_mean", "shape": [1536], "dtype": "float32"}, {"name": "block6k_bn/moving_variance", "shape": [1536], "dtype": "float32"}, {"name": "block6k_se_reduce/kernel", "shape": [1, 1, 1536, 64], "dtype": "float32"}, {"name": "block6k_se_reduce/bias", "shape": [64], "dtype": "float32"}, {"name": "block6k_se_expand/kernel", "shape": [1, 1, 64, 1536], "dtype": "float32"}, {"name": "block6k_se_expand/bias", "shape": [1536], "dtype": "float32"}, {"name": "block6k_project_conv/kernel", "shape": [1, 1, 1536, 256], "dtype": "float32"}, {"name": "block6k_project_bn/gamma", "shape": [256], "dtype": "float32"}, {"name": "block6k_project_bn/beta", "shape": [256], "dtype": "float32"}, {"name": "block6k_project_bn/moving_mean", "shape": [256], "dtype": "float32"}, {"name": "block6k_project_bn/moving_variance", "shape": [256], "dtype": "float32"}, {"name": "block6l_expand_conv/kernel", "shape": [1, 1, 256, 1536], "dtype": "float32"}, {"name": "block6l_expand_bn/gamma", "shape": [1536], "dtype": "float32"}, {"name": "block6l_expand_bn/beta", "shape": [1536], "dtype": "float32"}, {"name": "block6l_expand_bn/moving_mean", "shape": [1536], "dtype": "float32"}, {"name": "block6l_expand_bn/moving_variance", "shape": [1536], "dtype": "float32"}, {"name": "block6l_dwconv2/depthwise_kernel", "shape": [3, 3, 1536, 1], "dtype": "float32"}, {"name": "block6l_bn/gamma", "shape": [1536], "dtype": "float32"}, {"name": "block6l_bn/beta", "shape": [1536], "dtype": "float32"}, {"name": "block6l_bn/moving_mean", "shape": [1536], "dtype": "float32"}, {"name": "block6l_bn/moving_variance", "shape": [1536], "dtype": "float32"}, {"name": "block6l_se_reduce/kernel", "shape": [1, 1, 1536, 64], "dtype": "float32"}, {"name": "block6l_se_reduce/bias", "shape": [64], "dtype": "float32"}, {"name": "block6l_se_expand/kernel", "shape": [1, 1, 64, 1536], "dtype": "float32"}, {"name": "block6l_se_expand/bias", "shape": [1536], "dtype": "float32"}, {"name": "block6l_project_conv/kernel", "shape": [1, 1, 1536, 256], "dtype": "float32"}, {"name": "block6l_project_bn/gamma", "shape": [256], "dtype": "float32"}, {"name": "block6l_project_bn/beta", "shape": [256], "dtype": "float32"}, {"name": "block6l_project_bn/moving_mean", "shape": [256], "dtype": "float32"}, {"name": "block6l_project_bn/moving_variance", "shape": [256], "dtype": "float32"}, {"name": "block6m_expand_conv/kernel", "shape": [1, 1, 256, 1536], "dtype": "float32"}, {"name": "block6m_expand_bn/gamma", "shape": [1536], "dtype": "float32"}, {"name": "block6m_expand_bn/beta", "shape": [1536], "dtype": "float32"}, {"name": "block6m_expand_bn/moving_mean", "shape": [1536], "dtype": "float32"}, {"name": "block6m_expand_bn/moving_variance", "shape": [1536], "dtype": "float32"}, {"name": "block6m_dwconv2/depthwise_kernel", "shape": [3, 3, 1536, 1], "dtype": "float32"}, {"name": "block6m_bn/gamma", "shape": [1536], "dtype": "float32"}, {"name": "block6m_bn/beta", "shape": [1536], "dtype": "float32"}, {"name": "block6m_bn/moving_mean", "shape": [1536], "dtype": "float32"}, {"name": "block6m_bn/moving_variance", "shape": [1536], "dtype": "float32"}, {"name": "block6m_se_reduce/kernel", "shape": [1, 1, 1536, 64], "dtype": "float32"}, {"name": "block6m_se_reduce/bias", "shape": [64], "dtype": "float32"}, {"name": "block6m_se_expand/kernel", "shape": [1, 1, 64, 1536], "dtype": "float32"}, {"name": "block6m_se_expand/bias", "shape": [1536], "dtype": "float32"}, {"name": "block6m_project_conv/kernel", "shape": [1, 1, 1536, 256], "dtype": "float32"}, {"name": "block6m_project_bn/gamma", "shape": [256], "dtype": "float32"}, {"name": "block6m_project_bn/beta", "shape": [256], "dtype": "float32"}, {"name": "block6m_project_bn/moving_mean", "shape": [256], "dtype": "float32"}, {"name": "block6m_project_bn/moving_variance", "shape": [256], "dtype": "float32"}, {"name": "block6n_expand_conv/kernel", "shape": [1, 1, 256, 1536], "dtype": "float32"}, {"name": "block6n_expand_bn/gamma", "shape": [1536], "dtype": "float32"}, {"name": "block6n_expand_bn/beta", "shape": [1536], "dtype": "float32"}, {"name": "block6n_expand_bn/moving_mean", "shape": [1536], "dtype": "float32"}, {"name": "block6n_expand_bn/moving_variance", "shape": [1536], "dtype": "float32"}, {"name": "block6n_dwconv2/depthwise_kernel", "shape": [3, 3, 1536, 1], "dtype": "float32"}, {"name": "block6n_bn/gamma", "shape": [1536], "dtype": "float32"}, {"name": "block6n_bn/beta", "shape": [1536], "dtype": "float32"}, {"name": "block6n_bn/moving_mean", "shape": [1536], "dtype": "float32"}, {"name": "block6n_bn/moving_variance", "shape": [1536], "dtype": "float32"}, {"name": "block6n_se_reduce/kernel", "shape": [1, 1, 1536, 64], "dtype": "float32"}, {"name": "block6n_se_reduce/bias", "shape": [64], "dtype": "float32"}, {"name": "block6n_se_expand/kernel", "shape": [1, 1, 64, 1536], "dtype": "float32"}, {"name": "block6n_se_expand/bias", "shape": [1536], "dtype": "float32"}, {"name": "block6n_project_conv/kernel", "shape": [1, 1, 1536, 256], "dtype": "float32"}, {"name": "block6n_project_bn/gamma", "shape": [256], "dtype": "float32"}, {"name": "block6n_project_bn/beta", "shape": [256], "dtype": "float32"}, {"name": "block6n_project_bn/moving_mean", "shape": [256], "dtype": "float32"}, {"name": "block6n_project_bn/moving_variance", "shape": [256], "dtype": "float32"}, {"name": "block6o_expand_conv/kernel", "shape": [1, 1, 256, 1536], "dtype": "float32"}, {"name": "block6o_expand_bn/gamma", "shape": [1536], "dtype": "float32"}, {"name": "block6o_expand_bn/beta", "shape": [1536], "dtype": "float32"}, {"name": "block6o_expand_bn/moving_mean", "shape": [1536], "dtype": "float32"}, {"name": "block6o_expand_bn/moving_variance", "shape": [1536], "dtype": "float32"}, {"name": "block6o_dwconv2/depthwise_kernel", "shape": [3, 3, 1536, 1], "dtype": "float32"}, {"name": "block6o_bn/gamma", "shape": [1536], "dtype": "float32"}, {"name": "block6o_bn/beta", "shape": [1536], "dtype": "float32"}, {"name": "block6o_bn/moving_mean", "shape": [1536], "dtype": "float32"}, {"name": "block6o_bn/moving_variance", "shape": [1536], "dtype": "float32"}, {"name": "block6o_se_reduce/kernel", "shape": [1, 1, 1536, 64], "dtype": "float32"}, {"name": "block6o_se_reduce/bias", "shape": [64], "dtype": "float32"}, {"name": "block6o_se_expand/kernel", "shape": [1, 1, 64, 1536], "dtype": "float32"}, {"name": "block6o_se_expand/bias", "shape": [1536], "dtype": "float32"}, {"name": "block6o_project_conv/kernel", "shape": [1, 1, 1536, 256], "dtype": "float32"}, {"name": "block6o_project_bn/gamma", "shape": [256], "dtype": "float32"}, {"name": "block6o_project_bn/beta", "shape": [256], "dtype": "float32"}, {"name": "block6o_project_bn/moving_mean", "shape": [256], "dtype": "float32"}, {"name": "block6o_project_bn/moving_variance", "shape": [256], "dtype": "float32"}, {"name": "top_conv/kernel", "shape": [1, 1, 256, 1280], "dtype": "float32"}, {"name": "top_bn/gamma", "shape": [1280], "dtype": "float32"}, {"name": "top_bn/beta", "shape": [1280], "dtype": "float32"}, {"name": "top_bn/moving_mean", "shape": [1280], "dtype": "float32"}, {"name": "top_bn/moving_variance", "shape": [1280], "dtype": "float32"}]}]}